SaveAndLoad/model_save.pth (torch_old, 261532 bytes, 10 tensors)

weight f4 [6, 3, 5, 5]
00000000: f4c9 a4bd 40b5 d63b 805e 8f3d 5eda 70bd
00000010: 4071 463d e1cc b4bd 9858 cf3c 3817 b3bd
00000020: 2ac0 9f3d 88f7 2c3d df36 c7bd ce04 973d
00000030: 5c32 4a3d 48ce de3d dc65 043d 306a eabc
00000040: 300a a43d 585a 10bc 14b6 df3d 90bc e8bc
00000050: c0e2 c8bc fa63 91bd bbe3 d1bd 1791 7dbd
00000060: 8c9f 3bbd d08b b0bb a09c 6c3d 4038 ccbd
00000070: 8262 bebd b085 563d 549b 5b3d 1ae5 45bd
00000080: 0548 e4bd 1060 4ebc c062 2abc 9017 72bc
00000090: 4474 2e3d 54d8 df3d aa38 d83d 7c24 1dbd
000000a0: 5cbf 0f3d e058 b03d e84d abbc faf1 873d
000000b0: cfde dbbd 8020 90bd a039 c63c 503f 463d
000000c0: d815 19bd 7860 44bd 4015 3d3c 6e70 e6bd
000000d0: d8b4 b23c 10ac a33b c22e ac3d 482f a6bd
000000e0: d1af e8bd 6eb2 b4bd 5e6a 823d 30c3 593d
000000f0: 68cb a9bd 06b3 8dbd 0487 c4bd 9844 b93c
00000100: 387b 0a3d 889f 3ebd 1644 e0bd 1821 0f3d
00000110: f6be 0abd d4a7 cbbc ba4d 1fbd 3440 753d
00000120: 2e81 c93d 202d d0bd 6831 a73c 0cb4 c6bc
00000130: dc78 d2bd a23f 31bd 0e85 ea3d 3c36 e13d
00000140: 600c 8fbd c4be 3c3d 0894 80bc 0867 043c
00000150: d0d5 febc 8086 7e3d 9480 4f3d f03d 05bd
00000160: 90e6 633c 5677 aabd b089 a0bd b8b6 10bd
00000170: 24d6 b13d 20eb c73b 48c6 d7bc f551 81bd
00000180: a0bc 613c 4c20 b03d b059 6d3d ec02 633d
00000190: 580d b63c 8004 5a3d 6ae1 c43d b0b5 fe3c
000001a0: c656 a1bd 34e1 c4bd 00c3 ed39 1abc 79bd
000001b0: d62b 993d 90cb ccbb d9c0 ebbd 6a77 823d
000001c0: 7864 a6bd dac4 ac3d 74f4 c03d 7236 ca3d
000001d0: 26c1 de3d 2879 12bd 24cf 8ebd 92b3 e43d
000001e0: 5e75 903d f0de c73d c061 dabd 585f 9f3d
000001f0: 1097 b2bc d850 d03d 3481 acbd 76e3 bc3d
00000200: b6cb 8a3d 7c5c 54bd 6049 453c 1060 643c
00000210: 6cb1 ba3d 24af a83d 3266 13bd 44ee 98bc
00000220: 15d5 76bd 9e36 823d b057 1d3d 3228 abbd
00000230: aef7 b53d faef 923d a05a a93d 71dc e2bd
00000240: 9490 4ebd 7c2d 47bd 2c21 203d 984a 5e3d
00000250: 97ed dfbd 7e98 c73d 4401 09bd 64bf b03d
00000260: b813 babd 907b 5c3d 7ece e5bd 0404 463d
00000270: 100c d23b 8e0f e33d 78de 413d 7c49 313d
00000280: d6e4 983d 7868 4fbc 3427 c4bd fd65 6abd
00000290: 46fc e93d 886e a13d fa0a 30bd 1037 83bb
000002a0: a021 2d3b dcc5 153d c61b a7bd 00c2 f33c
000002b0: 7cf5 ca3d 3c57 25bd 8a03 adbd 3860 99bd
000002c0: 457a bbbd 7c3c 6a3d 949d bd3d 8093 b7ba
000002d0: 58c2 a1bd fe37 d73d 3a96 8fbd ece4 933d
000002e0: 7837 833c 04f8 563d b822 d53d 0648 d23d
000002f0: cc37 603d 30d7 90bc 80d7 8e3d 7064 bdbd
00000300: 9e82 c33d f87d e8bc cab2 82bd 784e 3abd
00000310: be6f d8bd 7d58 bfbd b071 ea3d 3a95 34bd
00000320: f8d5 ec3c 4aab 9cbd 5c4f c63d de2a c63d
00000330: b1d5 8cbd d8c2 91bc bc5b e13d dc88 8c3d
00000340: ea13 bb3d 8cdb a53d 869d 893d bca8 523d
00000350: 48e1 de3c 248c b83d aede 11bd ea60 a2bd
00000360: 0765 6dbd 98ba c93c 7039 2b3d 38b3 513d
00000370: 826a aa3d 80ee 353d e02b 0dbd e813 a1bd
00000380: 6c28 aabd 84d4 d6bd 480f a13d 306e 4cbc
00000390: f684 34bd 3021 ffbc bc2f 563d e0a0 f63c
000003a0: 8e5d ddbd 1e56 2cbd de10 58bd 1039 953b
000003b0: 549f dbbd 00d8 c4b8 a856 0d3c f29a 48bd
000003c0: 2c98 7b3d 8014 f93a 67f5 c0bd 4001 c8ba
000003d0: decb 8f3d 5883 f53c b4dd 593d 287d d23c
000003e0: 2e76 39bd 6818 c03d 406e ed3c e848 97bd
000003f0: 4e8c 4fbd c674 40bd 5869 873c a889 ba3d
-0.08046332 0.0065523684 0.07000446 -0.058802 0.048447847 -0.0882814 0.0253108 -0.08744663
0.07800324 0.04222825 -0.09727263 0.07373963 0.049364433 0.10879189 0.032323703 -0.028615087
0.080097556 -0.008810602 0.109234005 -0.028410226 -0.024522185 -0.07099147 -0.10248514 -0.061905947
-0.045806453 -0.0053877607 0.057766557 -0.09971666 -0.092961326 0.052373588 0.05361493 -0.04831419
-0.11146549 -0.012596145 -0.01039952 -0.014776126 0.04259135 0.10929933 0.10557683 -0.038364872
0.035094604 0.086107016 -0.020911172 0.0663795 -0.10735857 -0.07037449 0.0241974 0.048400223
-0.037374347 -0.047943562 0.011540711 -0.11251913 0.021814749 0.0049948767 0.08407356 -0.08114487
-0.11361659 -0.08823095 0.06367944 0.05316466 -0.0829075 -0.06918912 -0.09596065 0.022615716
0.033808917 -0.04653886 -0.10950486 0.03494367 -0.03387352 -0.0248603 -0.038892485 0.059875682
0.09839092 -0.10164857 0.0204093 -0.024255775 -0.10276958 -0.043273576 0.114511594 0.109966725
-0.06984782 0.046080366 -0.015695587 0.008081205 -0.031107813 0.062139988 0.05065973 -0.03252977
0.013909951 -0.08323543 -0.07838762 -0.035330504 0.08683422 0.006101027 -0.026339665 -0.0631446
0.013777882 0.0859991 0.05794686 0.05542271 0.02222316 0.053226948 0.09613307 0.031092495
-0.07877879 -0.096132666 0.0004534945 -0.060970403 0.07479064 -0.0062498525 -0.11511392 0.06370433
-0.08124632 0.08435984 0.09421626 0.09873666 0.10876684 -0.035760075 -0.06973103 0.11167063
0.07053636 0.09759319 -0.106631756 0.07781857 -0.021800548 0.1017167 -0.08423081 0.09223072
0.06777136 -0.051846012 0.01204142 0.013938919 0.09115872 0.082365304 -0.035986133 -0.018668301
-0.060261805 0.06358074 0.038413703 -0.08357276 0.08885132 0.07174678 0.082692385 -0.11077202
-0.05043085 -0.04862736 0.039094135 0.054270357 -0.109339885 0.097458825 -0.033448473 0.08630255
-0.09085792 0.053828776 -0.11221026 0.048343673 0.0064101294 0.11086951 0.047331303 0.04328297
0.07465522 -0.012659185 -0.0957779 -0.05722617 0.114250705 0.0788241 -0.042979218 -0.0040043667
0.0026417747 0.036565647 -0.08159594 0.029755592 0.09910104 -0.040366396 -0.08447941 -0.074890554
-0.091541804 0.05718659 0.09258571 -0.001400575 -0.07898396 0.105087265 -0.07011075 0.07221398
0.01601766 0.05248262 0.10407013 0.10267644 0.054740712 -0.017680734 0.06974697 -0.092476726
0.095463976 -0.02838038 -0.063817576 -0.04548499 -0.10568188 -0.0934305 0.114474654 -0.044087626
0.028910622 -0.07649858 0.09683105 0.09676145 -0.06876696 -0.017793104 0.11003825 0.06862041
0.09134658 0.08098516 0.06719498 0.05143045 0.027207032 0.09011105 -0.035612755 -0.07928641
-0.057957675 0.024625108 0.041802824 0.051196307 0.08321096 0.044416904 -0.03446567 -0.07865125
-0.08308491 -0.10489753 0.07864243 -0.012477443 -0.044072114 -0.031143755 0.052291617 0.030106008
-0.1080886 -0.042074315 -0.05275046 0.0045539215 -0.10723749 -9.3862414e-05 0.0086266175 -0.048975892
0.06142442 0.0019003302 -0.09421807 -0.0015259162 0.070213065 0.029969856 0.05318995 0.025694445
-0.04527872 0.09379655 0.028983235 -0.07386953 -0.050670914 -0.046986364 0.016529724 0.09108287

bias f4 [6]
00000000: a677 b43d e858 6cbd b6a8 9b3d d879 d83c
00000010: 14ff 55bd f85b d03c
0.08811884 -0.057701975 0.076005384 0.026425287 -0.052245215 0.02543448

weight f4 [16, 6, 5, 5]
00000000: e87e 903d 56f9 2f3d b88a 7e3c 40fc 083b
00000010: 1109 a1bd 6073 2ebb 1461 823c bc4a 0a3d
00000020: 606d 413b a4bb 62bd be42 9ebc a427 643d
00000030: d8d5 83bd 7713 8ebd 8478 413d 5054 d83c
00000040: 8461 86bc fef4 983d 80e0 28ba f887 a2bd
00000050: 60f6 763d 50e1 9ebc c0ad 26bb ec5c e3bc
00000060: fd07 90bd e83f 103c 2017 48bb 5c0c 903d
00000070: 5c55 583d a8d8 5d3c 4005 b03c e6e0 81bd
00000080: 9c5f 8c3c 5a4d 88bd 8098 7d3a 48c3 2e3d
00000090: 4a8e d7bc 08e2 643d d05c 56bc c04d 3f3d
000000a0: 20ee 45bd 7a6f 953d d0d0 8fbb 3c29 81bc
000000b0: 826d 863d e26f a63d c8a6 763d ddd8 3bbd
000000c0: 103e 6c3d 803b dabb 743e a33c 409f 1c3b
000000d0: afe7 33bd de64 5dbd daf5 f0bc a6eb 263d
000000e0: e234 c8bc ed47 4dbd 2056 8abd 30a3 0d3d
000000f0: 741e 973d c082 21bc f1bb 02bd 28a5 ebbc
00000100: 6003 83bc 12af a63d 9ccf a1bd b0b7 06bc
00000110: e214 f3bc 146a a23d 6433 693d 687f 2d3d
00000120: 489f 463c 8a7d a2bd ae76 1bbd 244a f8bc
00000130: 24e5 84bc 7068 f3bb 4696 bdbc e021 c83b
00000140: 0019 89ba 6005 e23b f9ae 22bd 80f8 43bb
00000150: 8824 3dbc 6a5c 9fbc 66be 8dbd 942a a0bd
00000160: 64bc 993d 009f 54ba ecfd a33d 9c4c ee3c
00000170: 40a7 9a3b 986d 463c 3483 7c3d 8079 82bd
00000180: 303f a1bc 88ac 783d 1800 253d f0ae 4d3c
00000190: a0e8 da3c d0a0 723d 80b6 6a3d d08b 6bbc
000001a0: 704b 95bd 1cc2 f53c 60b6 97bd dfdc 47bd
000001b0: 3856 6b3d be79 a13d 30ae cf3b e821 75bd
000001c0: 30c2 3a3d 2072 7e3c f2e9 3dbd 4424 7f3d
000001d0: 7d81 0fbd dcce 953d 64fc ab3c f5b5 55bd
000001e0: bebc 0d3d 9858 373d ea96 19bd 4eb5 75bd
000001f0: be1a 9f3d 804e 82ba bfb4 82bd 1039 e53b
00000200: 00b3 95ba 6f28 1abd 80b9 38bb 6021 433d
00000210: 3090 e23b 74a7 47bd 3288 6cbd 4c39 8a3d
00000220: 00fe 5eb9 af8c 12bd b848 1e3c e747 a3bd
00000230: e2a2 c3bc 6a9a 96bd e03c 563d 3067 d8bb
00000240: 1cec 423d fc00 843c 5c62 693d 948f 673d
00000250: d8b9 b83c aa8d 51bd 069d 20bd 70cd 483d
00000260: b003 a23d 72f7 a13d b465 f93c 9859 d03c
00000270: 887e 7d3d a0f7 9dbc 1cb6 a1bc 00ab a7b9
00000280: 82d5 8a3d 2e67 63bd 007d a439 607d 163d
00000290: a80d 873d a0b3 08bc acfa 9c3c 2413 f63c
000002a0: 4416 5cbd 2c0e 863d f88f 3a3d 8c5d 343d
000002b0: e09d 5bbb 40dd 133b dce2 b83c d0c6 0dbc
000002c0: 6abe 71bd 98f0 503d 58c8 623d acd4 623d
000002d0: 3ae0 77bd 1c6e 9f3d 40c4 0bbb dc34 4d3d
000002e0: ae03 84bd 008c 71ba 124a 973d f896 8bbc
000002f0: d099 383d e40f 933d 1069 f6bb 5670 0d3d
00000300: 0f58 8fbd 906a ea3b 6e75 46bd f2a0 56bd
00000310: a05e 7c3b 837d 33bd 5201 913d 84fa fd3c
00000320: dcf4 103d c643 d3bc df87 4ebd 811a 91bd
00000330: b89d eabc 2e42 823d 34b0 7b3d 8edb c2bc
00000340: 3ca4 3e3d 8c91 713d 4bb8 39bd 1b46 2cbd
00000350: 0476 eabc f2e8 a13d 083b 43bc 78a5 803c
00000360: 54a1 763d e0cc 573b 776c a6bd b235 9e3d
00000370: 1802 5dbd 580d 44bc 0054 033d e8ed 763d
00000380: 6cc3 873d dcfd 88bc d46a 483d 6cfc 133d
00000390: d4fe 9f3d 725b 72bd f838 553d 2817 913d
000003a0: 0f01 30bd 3c6c d53c 7865 3b3d 548e 75bd
000003b0: 5a39 2e3d ed49 5abd 571c 41bd d06a 753c
000003c0: 2878 d8bc 3cb5 86bd 2827 353d d274 77bd
000003d0: 6c61 783d b515 5dbd 0014 883b d68a ddbc
000003e0: 66ac a9bc dca3 8bbc b260 81bd adb2 0cbd
000003f0: 60b6 cabb e682 68bd 94dc aabc 7693 81bd
0.070554554 0.042962395 0.015536003 0.0020902306 -0.078630574 -0.0026619062 0.015915431 0.03376268
0.0029514655 -0.05535473 -0.019318935 0.055701867 -0.06437272 -0.069373064 0.047234073 0.02640739
-0.016403921 0.074686036 -0.00064421445 -0.0793609 0.060293555 -0.019394547 -0.0025433153 -0.02775427
-0.07032774 0.008804299 -0.0030531362 0.07033607 0.05281578 0.013540424 0.021486878 -0.06341724
0.017135434 -0.06655379 0.00096739084 0.042666703 -0.026312966 0.055879623 -0.013083652 0.046705008
-0.048322797 0.07296653 -0.004388906 -0.015766732 0.06563856 0.08126809 0.06021765 -0.045861114
0.057676375 -0.006659925 0.01992724 0.0023898631 -0.043922123 -0.054051273 -0.029414106 0.040752076
-0.024439279 -0.050117422 -0.06754708 0.034579456 0.07378855 -0.009857833 -0.031917516 -0.028765276
-0.01599282 0.08138861 -0.079009265 -0.008222505 -0.029673044 0.07930389 0.056933776 0.042357832
0.012122937 -0.07934101 -0.03795498 -0.03030879 -0.016222544 -0.0074282214 -0.023142945 0.006107554
-0.0010459721 0.0068976134 -0.03971765 -0.0029902756 -0.011544354 -0.019453246 -0.06921081 -0.07820621
0.07506636 -0.0008110851 0.08007416 0.029089265 0.004719645 0.01211109 0.061648563 -0.063708305
-0.01968345 0.060711414 0.040283293 0.012553915 0.026722252 0.059235394 0.05730295 -0.014376596
-0.07289779 0.029999785 -0.07407832 -0.048794623 0.05745527 0.078845486 0.0063379034 -0.05984679
0.045595348 0.015530139 -0.046365686 0.062290445 -0.0350356 0.07314846 0.020994373 -0.05217548
0.034603827 0.044762224 -0.03749744 -0.05998736 0.077687725 -0.0009941608 -0.06382131 0.006995328
-0.0011421144 -0.037636217 -0.0028186738 0.04763925 0.006914161 -0.04874368 -0.057747073 0.0674921
-0.00021266192 -0.035778698 0.009660892 -0.07972699 -0.02388138 -0.07353671 0.05230415 -0.006604098
0.047588453 0.01611375 0.05697857 0.05653341 0.022549555 -0.051160492 -0.03921225 0.049024045
0.079108596 0.079085246 0.030444004 0.025433347 0.061888248 -0.019283116 -0.019740157 -0.00031980127
0.06779005 -0.05551832 0.0003137365 0.03674066 0.065944016 -0.008343607 0.019162498 0.030038424
-0.05373217 0.06545672 0.045547456 0.044034526 -0.003351085 0.0022562295 0.022569112 -0.008653358
-0.059019484 0.051010698 0.055366844 0.0553786 -0.060516573 0.077846736 -0.002132669 0.05009924
-0.06446014 -0.0009214282 0.07387175 -0.017039761 0.045068562 0.07180765 -0.0075198486 0.03453096
-0.06999218 0.0071538165 -0.048451833 -0.052399583 0.003850855 -0.04382087 0.0708033 0.031003244
0.035389766 -0.025789153 -0.050422546 -0.07085133 -0.02863966 0.06360279 0.061447337 -0.023786332
0.046543345 0.058976695 -0.04534177 -0.042059045 -0.028620727 0.07905759 -0.01191593 0.015703902
0.06021245 0.0032928512 -0.08126157 0.07725085 -0.053957075 -0.011966072 0.03206253 0.06028548
0.06629071 -0.016722612 0.048930004 0.0361294 0.078122765 -0.05916924 0.052056283 0.07084495
-0.04296976 0.026052587 0.045751065 -0.059950188 0.042535163 -0.053293157 -0.047146168 0.014979079
-0.026424482 -0.065775365 0.044226795 -0.060414143 0.060639784 -0.05397578 0.004152775 -0.027043741
-0.020712089 -0.017045908 -0.06317271 -0.034350086 -0.0061862916 -0.05676546 -0.020857133 -0.06326954

bias f4 [16]
00000000: 24a6 533d b4c1 973d deee 99bd 7039 93bd
00000010: e899 8b3d 1c25 6ebd 40de 0a3d 4c9b 043d
00000020: a012 553d 6045 933d 3632 8fbd 88c0 693c
00000030: 5d26 6ebd 10cc cabc 183a 2dbc a7ff 2cbd
0.051672116 0.07409993 -0.075162634 -0.0718869 0.06816465 -0.05814086 0.03390336 0.032374665
0.052019715 0.071909666 -0.06991999 0.014267094 -0.058142055 -0.024755508 -0.010572933 -0.042235997

weight f4 [120, 400]
00000000: 9223 09bd 2efb 19bd ea1a f5bc e026 7b3b
00000010: 91a1 473d 60f1 25bb 48bd 363c b51e 1cbd
00000020: 7378 1cbd c0aa 85bc 69d3 0d3d 6032 ab3a
00000030: 97fa d7bc 6969 1a3d 4053 c2bb e1e2 243d
00000040: e04e d4bc c743 f1bc 6996 0c3d c46e 5c3c
00000050: 7e26 9a3c e0f9 77bc b94d 083d 6e31 913c
00000060: 80b7 ac3b a3de 3f3d ad7e 40bd aaa9 e03c
00000070: 30a5 eabb 204c 0bbb ba46 9ebc 7381 2f3d
00000080: 451d 29bd 107e ecbc 00af 27bb c0b2 8bbb
00000090: 00e4 2cba 0cb2 2f3c 3cbf 87bc d292 b23c
000000a0: 1053 07bd f2c8 e03c f355 0d3d 531c a1bc
000000b0: b28b 46bd 688b 073c 8fdb 103d 324d f13c
000000c0: 7e90 c23c 5461 28bc c0e8 a2ba c6c8 f63c
000000d0: ba26 efbc 7acb 8c3c 752d 4c3d 78b8 31bd
000000e0: 1de2 0c3d 92ef c43c 32e5 15bd 9499 24bc
000000f0: ec1f 3fbc 809c 9abb 111a 3e3d 2d69 44bd
00000100: 805f 373b b137 203d 1613 9b3c 7f06 1b3d
00000110: b5df 13bd 543a 25bc 3ff6 293d e0c0 46bb
00000120: 5afa debc 74b8 4fbc c09d 433c 93fc d9bc
00000130: 9033 b3bb 6a22 cdbc 13ad f8bc 8757 40bd
00000140: ffe1 33bd b303 24bd d3fa 393d d480 23bc
00000150: b0e5 753b eaa8 ce3c 18d5 b63b 80be 533a
00000160: b8d8 2fbc b5e2 11bd 532f b5bc 5082 12bb
00000170: 08ee 2dbd 063d 1cbd 186f cdbb e01a 11bc
00000180: 824a df3c 73c3 9fbc c302 263d 4572 18bd
00000190: aef4 ec3c fb7c 17bd 7d3a c5bc c095 c9bb
000001a0: 30fe 893b aaf0 12bd 8f37 223d d3d9 b0bc
000001b0: d099 5e3b 2d20 c7bc 48d1 7abc c081 45bd
000001c0: 716a 183d 71fb 293d 104a a8bc 6c85 5bbc
000001d0: 576d 183d d89b c8bb e570 3abd 00a5 fdb9
000001e0: b286 c13c d4c0 09bc 50e0 cebc 602e c8ba
000001f0: 002b 54bb b671 f23c 1f34 013d fd6b 423d
00000200: f3f2 373d 1be7 2cbd 4436 6b3c 4114 343d
00000210: 28f3 03bc 6075 1abb 80bc 5b3a 223f ee3c
00000220: 2493 94bc 2405 82bc e8cb 0dbd d18f 0c3d
00000230: eaec 01bd 5e8d c53c 35fd 243d 1fce 333d
00000240: e0fd 5abc fb2c 123d 0cd9 6fbc ac24 37bc
00000250: 76ff f43c 92d2 49bd 5898 31bc 77de 2c3d
00000260: 2471 5f3c 2b47 0dbd 922e 0abd 5342 2abd
00000270: ce6a 873c 5163 423d 4257 23bd 0c1c 51bc
00000280: 60f4 9b3a 43d5 013d f3dd d8bc 043f 4e3c
00000290: 4c8f 593c c600 943c 00d5 abba 786e 4cbc
000002a0: fa66 be3c 2396 c4bc d358 b0bc 0014 3abb
000002b0: 7ccc 763c b0f2 10bd 622e 1abd b7b1 0d3d
000002c0: 871d 0e3d 32f8 b33c 12cc 27bd 78ce 313c
000002d0: 74ea 3dbc 80e6 7fba 97f0 303d ddc0 3ebd
000002e0: b3c2 e1bc ec54 0c3c ceef 833c e827 03bd
000002f0: 37d4 173d 873c e1bc 92ed e53c d5c7 0fbd
00000300: c000 f9bc da4a ca3c f0bf d6bc d727 d6bc
00000310: b389 b7bc 72c6 8b3c 28bd 2dbd 93a0 d8bc
00000320: ac48 3abc 8407 7a3c d4df 3ebc fef7 aa3c
00000330: 5e77 e93c a9b1 063d d44a 323c f6e8 de3c
00000340: b2a7 ff3c cbb6 423d 0002 303a 20f0 3c3b
00000350: 3a9e c6bc 1631 cd3c 4692 863c c021 d63b
00000360: 3238 08bd 2fda 49bd a092 1cbb 165d 10bd
00000370: e870 21bc 2c35 403c ae5f 863c 24bf 733c
00000380: a07e 1bbd 9eb2 fe3c 482d 4abd 219e 223d
00000390: 50e0 1dbd 5b2e 1a3d 3a57 da3c 57d3 0c3d
000003a0: ac67 64bc a8fa 71bc 6632 8dbc 4c21 6ebc
000003b0: a86f 43bd 80f9 0e3c d188 2c3d 2ee4 24bd
000003c0: 50fe bbbb 86cf 863c 2dce 19bd c09a fbbb
000003d0: 8ee5 993c 081f 1ebd 6179 2b3d b72e a2bc
000003e0: f6ec 87bc 7b7f 103d 4d88 2e3d e639 ae3c
000003f0: 00b1 233c 00da 5fbc 9dd5 16bd f2f5 883c
-0.033481188 -0.03759306 -0.02992006 0.0038322732 0.048738066 -0.0025320873 0.011153527 -0.038115222
-0.038200807 -0.016316772 0.034625445 0.0013061278 -0.026364608 0.037698183 -0.0059303343 0.04025543
-0.025916517 -0.029451264 0.03432313 0.013454143 0.018817183 -0.015135258 0.033277247 0.017723765
0.0052708983 0.046843182 -0.046995807 0.027424652 -0.007160805 -0.002125509 -0.019320834 0.04284806
-0.04128768 -0.028868705 -0.0025586486 -0.004263252 -0.0006595254 0.010723602 -0.01657068 0.021798525
-0.0330382 0.027439568 0.034505796 -0.019666826 -0.048473068 0.008272983 0.035365637 0.029455755
0.02375054 -0.010277111 -0.0012428984 0.030125033 -0.029193271 0.017186869 0.04984804 -0.043388814
0.034395326 0.024040017 -0.03659553 -0.0100463815 -0.011665326 -0.0047183633 0.046411578 -0.047951866
0.0027980506 0.03911561 0.01893 0.037847992 -0.036102016 -0.010084707 0.041494604 -0.0030327365
-0.027218986 -0.012678254 0.011939466 -0.026609695 -0.005468793 -0.025040824 -0.030355966 -0.046958473
-0.0439167 -0.04004259 0.04540522 -0.0099794455 0.0037520938 0.025227029 0.005579602 0.0008077398
-0.010732822 -0.035616595 -0.022117293 -0.0022355504 -0.042463332 -0.038144134 -0.006269347 -0.008856505
0.027257208 -0.019502377 0.040529978 -0.03721835 0.028925266 -0.036984425 -0.024075741 -0.006151885
0.0042112097 -0.035874046 0.039603766 -0.021588242 0.003396619 -0.024307335 -0.015308686 -0.048219442
0.037210885 0.04149956 -0.020543128 -0.0133985095 0.03721365 -0.0061220936 -0.04551782 -0.00048378855
0.023623798 -0.00840779 -0.025253445 -0.001527261 -0.0032374263 0.029595237 0.031543847 0.047466267
0.04490943 -0.042212587 0.0143562 0.043964628 -0.008053578 -0.0023568496 0.00083822757 0.029082838
-0.018136568 -0.015871592 -0.03461829 0.03431684 -0.03172008 0.02411526 0.04028054 0.043897744
-0.013366193 0.035687428 -0.01463915 -0.011178177 0.02990697 -0.04927308 -0.010839544 0.042204347
0.013637815 -0.0344917 -0.03373582 -0.041567158 0.01653042 0.047457997 -0.039878137 -0.012763035
0.0011898391 0.031697523 -0.026473021 0.012588266 0.013278794 0.018066775 -0.0013109744 -0.01247751
0.023242462 -0.023997372 -0.02152673 -0.0028393269 0.015063401 -0.035387695 -0.03764189 0.03459331
0.03469613 0.021968935 -0.0409661 0.010852449 -0.0115915425 -0.0009761825 0.043198194 -0.046570648
-0.02755866 0.008565169 0.016105559 -0.03202048 0.03706762 -0.027494682 0.028067384 -0.035102684
-0.030395865 0.024693895 -0.02621457 -0.026142044 -0.022404527 0.0170624 -0.04241672 -0.026443755
-0.011369865 0.015260581 -0.0116500445 0.020870205 0.028499302 0.032884274 0.010882098 0.027210694
0.031207893 0.047537606 0.0006714165 0.002882965 -0.02424537 0.02504782 0.01642717 0.006534785
-0.033256717 -0.04928034 -0.0023891106 -0.035245024 -0.009853579 0.011731427 0.016403046 0.014877114
-0.037962556 0.03109103 -0.04935959 0.039701585 -0.038544 0.037641864 0.026652921 0.034381237
-0.013940733 -0.014769234 -0.017235946 -0.014534306 -0.047713906 0.008726478 0.042122666 -0.04025667
-0.0057371035 0.016456377 -0.03755014 -0.0076783597 0.018786218 -0.038603812 0.041863803 -0.019797666
-0.016592484 0.035277825 0.042610455 0.021267843 0.009990931 -0.013662815 -0.03682481 0.016718838

bias f4 [120]
00000000: 37ad 1c3d 9a5d c33c 3053 98bb 20b3 5e3b
00000010: 606b 75bc ba2a 14bd 53e7 143d cd39 42bd
00000020: d8ec cabb 1007 ca3b 5a45 2dbd 1067 10bd
00000030: 80f7 be3b 94ba 0cbd 2c81 70bc 6c99 183c
00000040: b81f 333c 31bb 353d 9495 6abc b06f b5bb
00000050: 2051 d7bc b2fc d83c 4673 e93c 2673 d03c
00000060: 74e6 1cbc 47e8 1c3d 80dd cb3b f6dc c03c
00000070: ca17 85bc 2bf0 0dbd 0eb0 e93c 632a 29bd
00000080: 7b75 373d 5b05 2ebd 607d b83a 8cd3 023c
00000090: 59ba 073d 3c29 503c b06f e5bb a676 07bd
000000a0: aa2d 923c 4c67 7bbc 4e98 8b3c f06e 2cbd
000000b0: ba9d 903c 2ca2 75bc 58bf b7bb 6063 2bbb
000000c0: b01e 05bb 1742 a6bc dcc7 613c b2b7 d73c
000000d0: 3a99 ebbc 74a1 60bc 4ccd 0cbc 3a0f a0bc
000000e0: 9036 bdbb aa1c cb3c c4e6 8bbc 1932 2f3d
000000f0: 903b d13b fd97 1b3d 986f b23b 0027 b3bb
00000100: 945d 57bc 0933 2f3d 2533 36bd 9dba 0a3d
00000110: 9ae4 bfbc e7d0 e1bc 4e25 e93c da94 a9bc
00000120: 57a0 b9bc c01f 89ba 96d7 883c fe3a 823c
00000130: 30dc 943b 98b7 ec3b 1ad8 b53c 5904 163d
00000140: 2485 703c 5f92 2d3d 3389 9dbc 3b56 4abd
00000150: 6df3 133d 2df8 223d 1a16 acbc 9dfb 3f3d
00000160: 98ba 85bb c00b 3bbd c02c 2ebc eb0e 31bd
00000170: b342 1c3d fad1 b63c f8cb 77bc 779b a0bc
00000180: c383 3b3d b96b 1a3d 0020 22ba bbcf 10bd
00000190: bfa2 3abd 9393 27bd 0268 e93c f196 0b3d
000001a0: a161 0a3d 22ce b73c 5137 363d de0a 02bd
000001b0: a884 b7bb e278 e93c 2ded 49bd 8692 20bd
000001c0: 80f4 583a bf1c 483d 5833 1abd 9ba1 3fbd
000001d0: 04ec 5d3c 4b64 47bd 73f4 163d 7284 3ebd
0.038251128 0.023848344 -0.0046485886 0.0033981279 -0.0149792135 -0.03617356 0.03635342 -0.047418404
-0.0061927848 0.0061653927 -0.042302467 -0.035254538 0.005827844 -0.034357622 -0.0146792345 0.009313922
0.010932855 0.044367973 -0.014317889 -0.005536996 -0.0262838 0.026487682 0.02849735 0.025445532
-0.009576429 0.038307454 0.006221473 0.023542862 -0.016246695 -0.03465287 0.028526332 -0.04130019
0.044789772 -0.042485576 0.0014075451 0.007985007 0.0331367 0.012705144 -0.0070018396 -0.033072136
0.01784404 -0.015344452 0.017040398 -0.042097986 0.017653335 -0.014992278 -0.0056075267 -0.0026151761
-0.002031248 -0.020295186 0.01378056 0.02633271 -0.028759588 -0.013710368 -0.008593868 -0.01953851
-0.0057743266 0.024793942 -0.017077811 0.042772386 0.006385274 0.037986744 0.005445432 -0.0054672956
-0.013144869 0.04277328 -0.04448237 0.033869375 -0.023424435 -0.027565433 0.028460171 -0.02070086
-0.022659464 -0.0010461733 0.016704362 0.01589727 0.00454285 0.0072240345 0.022197772 0.03662524
0.014680181 0.04237592 -0.01923046 -0.049398642 0.03612082 0.03978746 -0.021006633 0.046870816
-0.0040810816 -0.045665503 -0.010630786 -0.043227118 0.038149547 0.022316922 -0.0151243135 -0.019605381
0.045779955 0.03770039 -0.0006184578 -0.035354357 -0.045565363 -0.040912222 0.028491978 0.034079496
0.033784512 0.022437159 0.044486348 -0.031748645 -0.0056005307 0.028500024 -0.049298454 -0.039202236
0.00082761794 0.04885554 -0.03764662 -0.04678498 0.01354504 -0.04867963 0.03685422 -0.04651303

weight f4 [84, 120]
00000000: 30b4 bf3b 30ca 3b3c e4db b2bc 94d2 893d
00000010: 48a1 793d 2688 ba3d d01a 213d 6a1f 6cbd
00000020: c93f b7bd c4cf 093d a5cd 85bd 1865 253d
00000030: ecc5 713d 0ad3 98bd 7498 8d3c 04c5 9abd
00000040: 0efe 033d 87bf 9cbd 9ede 953d c48b 973d
00000050: 9468 84bc fa3c 95bd 4658 093d f46f 313d
00000060: e4e4 1d3d 6448 b0bd bcc0 753d 88f2 e53c
00000070: b5e6 9fbd d013 aa3d f572 19bd b0d3 d63c
00000080: 688b 73bc 004a 5fba ec68 d6bc 00f6 20bd
00000090: 20d4 b93d b3ea a2bd 043e 743d 31f5 96bd
000000a0: 8400 4abd b08c 003d e80b 3cbd 0c1a a2bc
000000b0: 50b0 6abd e84a 2c3d b8a0 8dbc a059 603d
000000c0: 0473 ddbc 4fbd 4abd 3416 8c3c 0876 643d
000000d0: 453a 99bd f8b7 8a3d 1069 b43c 4600 65bd
000000e0: edef 02bd 72db b5bd b82f 7abc 0cb8 373d
000000f0: 12fd 80bd 1140 67bd 8062 1d3d 8087 5f3d
00000100: e436 933d 0820 d33c ba95 63bd 2474 d4bc
00000110: 317b 1fbd c400 3e3d 96b9 8c3d d04c 7b3c
00000120: aad0 b4bd 5031 b4bd 0519 aabd f78f 01bd
00000130: 6b2f aebd 80cf 38bc 50a4 1d3d de45 9cbd
00000140: 4c80 3a3d c019 4dbb 5455 913d 46b2 0dbd
00000150: 4c5e f0bc 481c 293d 2414 c8bc 924e 8cbd
00000160: 49ed 3abd 31ee 06bd b01f 303d d47c 1c3d
00000170: ded9 babd a6df 933d f408 583d 60cb 763b
00000180: d25f 953d 083b 993d 5c29 86bd 64ce 03bd
00000190: 50ef ad3b 31a7 3bbd 20d9 87bb 95c9 53bd
000001a0: 4009 3b3d d068 793d ec97 cebc 9bbc b0bd
000001b0: 40a6 463b 7027 b03d 98c8 673d 186c 5a3d
000001c0: 6405 9dbd 32f9 963d 2d56 57bd 00d9 933d
000001d0: 1583 b7bd 8455 58bd d04a c1bb 046c 313d
000001e0: ce7e 95bd bc08 563d 90e3 aabd 7061 6dbc
000001f0: 947a 1e3d 3327 70bd 4796 aabd 8b9f a6bd
00000200: 4aa6 91bd 34ae 5f3d 3870 403d 084b 27bd
00000210: d843 3abc d6dd 41bd 42c5 fabc 84ff 303d
00000220: b870 b23d d3a6 48bd 8c52 433d 0002 4d3c
00000230: 7f43 afbd b559 5cbd e09c 233d b57e a1bd
00000240: b853 45bd a1d0 80bd dca7 473d 33ab 66bd
00000250: 0df1 05bd 61c9 06bd f096 b7bc 802b 563d
00000260: 5879 a4bd 600a 55bb 444f ba3d f9ef 2dbd
00000270: f4c1 a3bc f25b 89bd b806 453d 58ff 173c
00000280: 1cf0 c43c 6840 583d e013 a8bb ecad 863d
00000290: 504f 32bd e885 b03d 006a a93d a17e 9abd
000002a0: b4a9 90bd 44d8 673d 506c d2bb 0863 55bc
000002b0: ca14 913d 847d 2c3d f342 3fbd 0495 0b3d
000002c0: 10ea 7d3d 803d b8ba a0b5 e4bb 98fb 233d
000002d0: 9c70 60bd bcd8 aa3d 18dd 213d 044c 863d
000002e0: e021 82bb 1821 073d de85 903d a8b8 4dbc
000002f0: 5730 95bd 3371 83bd 8c8d 7a3d 0433 623d
00000300: e91c 86bd 11d5 74bd 50a3 eb3b 4c1a 9c3c
00000310: 9c85 693d fe9d 8fbd f5bd a6bd 996d 9dbd
00000320: f548 0cbd 6060 e03b f425 06bd 9e6a 24bd
00000330: cc6c c2bc 5411 a4bd f8fa 9a3d c2f8 57bd
00000340: f434 1dbd 8425 84bc b814 10bc 1ced dd3c
00000350: c6cd 9cbd 3e68 a73d 7afe 033d 90a9 473d
00000360: 221d b9bd d069 a1bb 4a8e 8fbd f023 81bd
00000370: 1ef1 acbd 78d9 d93c 7027 12bc 9035 273d
00000380: d89e b0bc 60f3 5abc 00c4 a33d 6100 66bd
00000390: e850 683c b094 813d 105a e7bc 0aa4 82bd
000003a0: e4af e83c 11a8 41bd 1c3b 8d3d 109f 283c
000003b0: e08e a43c 8460 ab3d a610 adbd c56a 28bd
000003c0: b0b1 ab3c 01d1 3fbd f0f8 133c 8cd7 df3c
000003d0: d044 a13c d036 cdbc 0070 a039 d2da 86bd
000003e0: de92 943d 31fb a1bd f8b2 19bc b8a8 203c
000003f0: 5cae d23c 8cad 513d 8c9b 513d 8afa 7fbd
0.0058503374 0.0114617795 -0.021833368 0.06729618 0.060944825 0.091079995 0.03933221 -0.057647146
-0.08947713 0.033645406 -0.06533364 0.040379614 0.059026644 -0.074621275 0.01728461 -0.07557109
0.032224707 -0.076537184 0.073178515 0.07399705 -0.016163148 -0.07287021 0.03353145 0.043319657
0.038548365 -0.086075574 0.05999826 0.02806975 -0.07807676 0.0830456 -0.037463147 0.026223987
-0.01486478 -0.0008517802 -0.026173078 -0.039297104 0.09073663 -0.079549216 0.059629455 -0.07370985
-0.049316898 0.03138417 -0.045909792 -0.01978781 -0.05729705 0.042063624 -0.01728855 0.054772973
-0.027032383 -0.049496945 0.017100431 0.055776626 -0.07481817 0.067733705 0.022022754 -0.055908464
-0.031967092 -0.088797465 -0.015270166 0.044853255 -0.06298269 -0.056457583 0.038424015 0.054572582
0.07188204 0.02577211 -0.055562712 -0.025934286 -0.038935844 0.04638745 0.06871335 0.015338138
-0.08828862 -0.08798468 -0.08305553 -0.031631436 -0.08505138 -0.011279941 0.03848678 -0.076305136
0.04553251 -0.0031295866 0.07096353 -0.034593843 -0.02934184 0.041286737 -0.024423666 -0.068509236
-0.04563645 -0.032942 0.04299897 0.038204983 -0.09123586 0.07220392 0.052742913 0.0037657842
0.07293667 0.074819624 -0.065508574 -0.03217925 0.0053080693 -0.045813743 -0.0041457564 -0.051705915
0.04566312 0.060890973 -0.025218926 -0.08629724 0.0030311495 0.08601272 0.056587785 0.053325742
-0.07667044 0.07371749 -0.052572418 0.07219124 -0.08960549 -0.05281593 -0.005898811 0.043315902
-0.07299577 0.052254423 -0.08344185 -0.014488563 0.03869112 -0.058631133 -0.083294444 -0.08135899
-0.07111795 0.054609492 0.04698202 -0.04084304 -0.011368714 -0.0473307 -0.030611638 0.04321243
0.08712906 -0.04898722 0.047686145 0.012512684 -0.08557796 -0.05379649 0.03994453 -0.078854956
-0.048175544 -0.06289793 0.048744068 -0.056315612 -0.032700587 -0.032906894 -0.02241084 0.05228758
-0.08030957 -0.0032507405 0.0909715 -0.042465184 -0.019989945 -0.0670699 0.04810211 0.009277187
0.024040274 0.052795798 -0.0051293224 0.06576142 -0.04353267 0.086192906 0.08272171 -0.07543684
-0.07063618 0.05660273 -0.0064216033 -0.013024099 0.07084043 0.04211189 -0.046694707 0.03407766
0.061990798 -0.0014056414 -0.006979659 0.04003486 -0.054794893 0.0834212 0.039517492 0.065574676
-0.0039713234 0.032990545 0.07056783 -0.0125562325 -0.07284611 -0.064180754 0.061170146 0.055224434
-0.06548483 -0.05977351 0.007191099 0.019055508 0.057012185 -0.070125565 -0.081417 -0.0768692
-0.034249265 0.0068474263 -0.03275104 -0.04014074 -0.023733519 -0.080111176 0.075674 -0.05272747
-0.03838058 -0.01613117 -0.008794002 0.027090602 -0.07656436 0.081741795 0.03222511 0.04874569
-0.0903876 -0.004925944 -0.07009561 -0.06305683 -0.08444427 0.026592955 -0.008920535 0.040822566
-0.021560118 -0.013363689 0.079963684 -0.056152705 0.014179446 0.06327188 -0.028241187 -0.06378944
0.028404184 -0.04727942 0.0689604 0.01029183 0.02008766 0.08368018 -0.08450441 -0.04111745
0.020958751 -0.04683018 0.009031519 0.02732446 0.019686133 -0.02505055 0.00030601025 -0.065847054
0.07254575 -0.07909239 -0.009381048 0.009805851 0.025717907 0.051190898 0.05117373 -0.062494792

bias f4 [84]
00000000: 508f 143d 94c4 3e3d b35a 7cbd 2c9a 943d
00000010: 4c60 b6bd 7054 343d 3679 93bd 2fc0 07bd
00000020: 90b7 db3b 56ed 8fbd 3822 47bc 6b04 91bd
00000030: cd77 72bd 2ddd 8ebd 34b9 0d3d ad15 a8bd
00000040: 1480 bbbc 78c6 273d 58a4 ab3d 443b 773d
00000050: 82f3 953d 0a16 0bbd c03f 6c3b 5c18 703d
00000060: 0554 2dbd e8e6 373d 00ef d0ba 28ef 8bbd
00000070: 5001 183d 9831 7a3d 508c 693d e238 b4bd
00000080: e4af 0c3d 8454 b83d e008 d73c 1041 dbbb
00000090: 0010 b13d 8cda b43d 4412 bfbc c82b 3f3d
000000a0: c005 613d 104c 6b3d dc06 703d 9cfb ad3c
000000b0: eca7 833c a8a2 95bd 650d 99bd 0899 763c
000000c0: d2ee 9ebd aaef 6cbd b822 a73c 3878 a83d
000000d0: 1433 453d 186d cbbc bbb7 43bd a05a 3a3c
000000e0: c081 e43c e43a 213d 9c42 913d 38bb 443d
000000f0: 50f5 89bb d209 abbd f058 243d a86a 013d
00000100: 02c2 ac3d d0a2 093d 800e e4ba d8db 443d
00000110: a681 9f3d 887a 63bc c0cf 1d3c 85c6 97bd
00000120: 28bf 663d f799 acbd 9828 c2bc 84b5 a5bc
00000130: 9cbb 443d 8094 553d 74bf 8b3d 3818 30bc
00000140: 2e6f 943d 4c4a 5c3d c060 38bb 1c51 b1bd
0.036269486 0.04657419 -0.061609935 0.072559685 -0.08905086 0.04402584 -0.072008535 -0.033142265
0.006705232 -0.0702769 -0.0121541545 -0.07080921 -0.059196282 -0.0697578 0.03460045 -0.08207259
-0.02288822 0.04096076 0.083809555 0.060359254 0.07321836 -0.033956565 0.003604874 0.05861698
-0.042316455 0.044897944 -0.0015940368 -0.06832725 0.037110627 0.061082453 0.057018578 -0.08799912
0.03434743 0.09000495 0.02624935 -0.0066911057 0.0864563 0.08830747 -0.02332414 0.046672612
0.054937124 0.057445586 0.05860029 0.02123814 0.016071282 -0.07306415 -0.07473258 0.015051134
-0.07760395 -0.05784575 0.020402297 0.08226055 0.048144415 -0.024832293 -0.04778264 0.011374146
0.0278939 0.039362803 0.07092783 0.04803011 -0.0042101517 -0.083514825 0.04012388 0.031595856
0.084354416 0.033602536 -0.0017399341 0.04806122 0.077884 -0.013884194 0.009632051 -0.074109115
0.056334645 -0.08427804 -0.023700997 -0.020228155 0.04803048 0.052143574 0.06823626 -0.010747962
0.07247768 0.053781793 -0.002813384 -0.086580485

weight f4 [10, 84]
00000000: a6b6 36bd 1300 a93d 1ef8 153d 70ef 33bd
00000010: b047 d9bd 1254 423d e4a8 bf3c 1384 44bd
00000020: e2ef 9bbd 5518 debd 34ad bd3c 8044 483c
00000030: 58ac dabd c07a 1c3b aa54 243d 64e8 8bbd
00000040: 38c3 94bd cbd5 b4bd 8597 823d 017a a43d
00000050: 5847 26bc 46a5 233d c8b2 06bd 2c06 823c
00000060: 2672 2f3d 6d6e d23d da7f 303d 4cb8 99bc
00000070: 24b8 9ebc 0d77 78bd 052d b43d 4d83 d5bd
00000080: f70e 8b3d 8c8e 97bd 7563 d43d 26b1 6f3d
00000090: 49b9 823d e0de 00bc 5f26 b83d 5c8a 1ebd
000000a0: f389 c33d 0fb4 9c3d dc2c ccbd 48c8 65bc
000000b0: 7945 dfbd f4b1 e2bc f601 3e3d 4e2d 1a3d
000000c0: 9087 ccbc cb06 b0bd 00a2 5a3b 40f5 cdbd
000000d0: 7b7f a93d 555a 9e3d 0987 c2bd aab4 8dbd
000000e0: 324a d7bd 3f0f a93d 1046 183c 610b c83d
000000f0: dd20 d03d 2068 99bc c0a6 b13a 5f51 9c3d
00000100: 7060 c2bb d6b5 97bd 64ee e63c 1149 d8bd
00000110: 3089 96bd 749d 3cbd e905 61bd 6e8c 693d
00000120: f86a 96bc a20a 1f3d 1d81 41bd 9abe 773d
00000130: ac62 8dbd cbcd dd3d 96bb a3bd e0ab febb
00000140: aa01 1f3d e217 b6bd aa8a 6d3d 7002 8fbd
00000150: 69d5 b7bd b38f d03d b00a a8bb cd3d 8a3d
00000160: 78e5 9fbd 222a 8cbd 97b5 cf3d 627f 683d
00000170: 74e1 ed3c 7f76 da3d 6938 df3d 9046 a4bd
00000180: 44c1 90bd 5762 c53d 3b8f 833d b6ce 493d
00000190: cc37 aebd 03a7 a83d 185e b0bc 1067 93bd
000001a0: 77c5 97bd 80ad 493b 95da 84bd 305f 6b3c
000001b0: e81b 5d3c dbe4 9dbd 8a38 71bd 140d a13c
000001c0: 62f9 0d3d e7bc 4abd 323c 0d3d 91cf 7dbd
000001d0: ea88 8abd 1868 d6bd cad2 0b3d 10c6 a6bc
000001e0: e44a 903c 503d 663c a2f7 163d 7df7 b23d
000001f0: 4143 c5bd 808d 053c dc53 913c 7afb c3bd
00000200: b468 cebc 8066 1e3b 630c 4cbd c1d0 b73d
00000210: 60eb 78bc 2090 b3bb d15e db3d ec52 9e3c
00000220: 6826 6d3c 0b4d 933d 5a87 723d 068e 1f3d
00000230: 86dc 92bd 0c6b f23c 069d b9bd d36b cf3d
00000240: 967d 1a3d 84d0 fe3c 74bd 973c 19ac 903d
00000250: 94fd f2bc 3f1f 903d 763e 543d 4006 e1bc
00000260: db6d a9bd dfc4 cf3d c19c a23d 907a cbbd
00000270: 199f c73d c017 72bd e36a d93d 26c4 3e3d
00000280: 571d c1bd c4f3 3abd 80e5 c1bc 8c83 5dbd
00000290: 0e20 39bd e2e3 a7bd 921a 293d d4ae a5bd
000002a0: 0f16 803d 4103 8a3d 2c2e 97bc c0a5 0a3c
000002b0: f091 ebbc b8cc 2d3c deb7 13bd 000a 23b9
000002c0: 2f10 cabd 0547 803d d4f9 99bd 86da debd
000002d0: c033 4fbd 9798 b93d bf4e ac3d 71c2 64bd
000002e0: a031 2fbb fdfd 863d 3ad3 633d 0041 56bc
000002f0: 972a ab3d 10a0 5dbc 903b c3bc 01ef cf3d
00000300: 6d44 c43d b12e 903d 769c 2fbd 5876 75bc
00000310: c80a 583c f676 353d 0032 ec39 465f 2e3d
00000320: de7f afbd debc 0e3d 78a3 71bc d927 b13d
00000330: 6016 5a3b 8108 af3d b14a 803d fceb e8bc
00000340: 15b0 a03d 5d26 983d fb0d a7bd 8c22 96bd
00000350: d61f 43bd 3913 65bd 7224 293d 9620 3fbd
00000360: dac2 113d 56d5 15bd e231 0b3d 388b babd
00000370: 002b 713a 2967 ba3d 9677 88bd 20b8 4e3c
00000380: b010 b33b 8417 f63c d037 eebb 7f62 d83d
00000390: 80a5 23bb d1a9 b8bd 285b 353c 7658 aebd
000003a0: e0ec 48bd 2ddc 8a3d f309 d23d 3451 2bbd
000003b0: 3836 0e3c 32cb 24bd a049 b4bb fca1 7dbd
000003c0: a29b 203d 3283 cfbd 3e76 1b3d 212f b7bd
000003d0: 7408 a8bd a4a9 f63c d04b d0bd 36bd 0abd
000003e0: e55c 8bbd d0e5 b8bd 40ad 86bd 86fb 143d
000003f0: afa1 56bd e0be 843b 28f4 1abd 8152 ddbd
-0.04460778 0.08251967 0.036613576 -0.043929517 -0.106093764 0.047443457 0.023395963 -0.04797752
-0.076141134 -0.10844485 0.023153879 0.012223363 -0.10677403 0.0023876876 0.040119804 -0.06831434
-0.072637975 -0.0882984 0.06376556 0.08031083 -0.010148846 0.03995254 -0.032885343 0.015872084
0.04283347 0.10274968 0.04309068 -0.018764637 -0.019374914 -0.06066041 0.08797649 -0.10425434
0.06789964 -0.074002355 0.103705324 0.05851855 0.063829966 -0.007865638 0.08991694 -0.03870617
0.09547796 0.07651531 -0.09969494 -0.014024802 -0.10901923 -0.027672745 0.04638859 0.037640862
-0.024966985 -0.08595046 0.003336072 -0.10056543 0.08276268 0.07732073 -0.09498412 -0.069192246
-0.105121985 0.08254861 0.009294048 0.09767795 0.10162518 -0.018726408 0.0013553724 0.07632708
-0.0059319064 -0.07407729 0.028189845 -0.10560811 -0.07350385 -0.046048597 -0.054937277 0.05701869
-0.018361554 0.0388285 -0.047242273 0.060484506 -0.06903586 0.108302675 -0.079947636 -0.007771954
0.038819946 -0.08891274 0.05799357 -0.06982887 -0.08976252 0.101836585 -0.005128227 0.06750069
-0.078074396 -0.06843974 0.101420574 0.056762107 0.029038168 0.106671326 0.10899431 -0.08021271
-0.070681125 0.096378975 0.064238034 0.0492694 -0.08506736 0.0823498 -0.021529242 -0.07197392
-0.0741071 0.003077358 -0.06487004 0.014365956 0.013495423 -0.07709666 -0.05889181 0.019659556
0.034661658 -0.049496558 0.034481235 -0.06196553 -0.067643955 -0.10469073 0.03413657 -0.020358115
0.017613836 0.014052704 0.036857255 0.08738611 -0.09631968 0.008151412 0.017740183 -0.0956945
-0.02519641 0.0024169981 -0.0498165 0.089753635 -0.0151928365 -0.0054798275 0.10711444 0.01932665
0.014474489 0.07192429 0.059211113 0.038953803 -0.07170968 0.02959206 -0.09063153 0.10127988
0.037717424 0.031105287 0.018522955 0.07064075 -0.029661931 0.0703721 0.05181738 -0.0274688
-0.082729064 0.10144972 0.07940055 -0.09935486 0.09747142 -0.05910468 0.1061609 0.04657378
-0.09429424 -0.04564263 -0.023669004 -0.05408053 -0.045196585 -0.08197762 0.041285105 -0.080899864
0.06254207 0.06738902 -0.018454634 0.008462369 -0.028756112 0.010607891 -0.03606402 -0.00015548617
-0.09866368 0.06263546 -0.07518354 -0.10881524 -0.050586462 0.09062307 0.08413457 -0.055849496
-0.002673246 0.06591413 0.055621363 -0.013077021 0.08357733 -0.013526931 -0.023832113 0.10153008
0.09583364 0.07040156 -0.042873822 -0.014981829 0.013186164 0.044302903 0.0004505068 0.04257133
-0.085693106 0.034848087 -0.014748447 0.086501785 0.0033277497 0.08546544 0.06264246 -0.028432839
0.07846085 0.07429192 -0.081569634 -0.07330808 -0.047637783 -0.055926535 0.041294523 -0.046661936
0.035586216 -0.036580406 0.03398312 -0.09108585 0.0009199828 0.091017075 -0.06663434 0.012617141
0.005464636 0.03004051 -0.007269837 0.10565662 -0.0024970472 -0.09016765 0.011069097 -0.08512966
-0.049054027 0.067802764 0.10255804 -0.04182549 0.008679919 -0.040232845 -0.005501941 -0.06192206
0.039210923 -0.101324454 0.03795456 -0.08944536 -0.08204737 0.030110188 -0.1017071 -0.03387185
-0.068048276 -0.09028208 -0.065760136 0.036372684 -0.052400287 0.0040510744 -0.0378305 -0.10806752

bias f4 [10]
00000000: 87b1 57bd 3e97 8ebd 8dce cb3d 4f19 a23d
00000010: cacc 613d 583e b2bd 0846 68bc d7cc ccbd
00000020: c4e0 f83c 9542 8cbd
-0.052659538 -0.06962441 0.09951506 0.079149835 0.055126943 -0.087032974 -0.014176853 -0.100000076
0.030380614 -0.06848637
