SaveAndLoad/state_dict.pth (torch_old, 249552 bytes, 10 tensors)

conv1.weight f4 [6, 3, 5, 5]
0	0xbd260f0a	-0.040541686
1	0xbd7167d9	-0.058936927
2	0x3d3faf70	0.04679817
3	0x3dd211aa	0.102572754
4	0x3c76a160	0.015053123
5	0xbde7d681	-0.1132021
6	0xbd62388c	-0.05522971
7	0x3dad7a26	0.084705636
8	0x3d9115ce	0.07084237
9	0x3d9cc390	0.07654488
10	0xbd9162e8	-0.07098943
11	0xbd35d55a	-0.04439292
12	0xbd64f891	-0.055901114
13	0xbde59e41	-0.11211825
14	0x3d694928	0.056954533
15	0xbdaa8093	-0.08325305
16	0xbdb51416	-0.08841722
17	0x3a162000	0.0005726814
18	0xbcf9dc00	-0.030500412
19	0xbdac6141	-0.08416987
20	0xbda871b1	-0.0822481
21	0x3d8bf178	0.06833166
22	0xbb436700	-0.0029816031
23	0xbde0b1a1	-0.1097138
24	0x3d18eccc	0.037335202
25	0x3d4a7314	0.049426153
26	0x3cc18638	0.02362357
27	0x3cfd5508	0.030924335
28	0x3d5ddb24	0.054164067
29	0x3d858c94	0.06520954
30	0xbce6b26c	-0.02816125
31	0x3dadc84a	0.08485468
32	0x3c9b85e8	0.01898475
33	0xbda5134a	-0.0806032
34	0xb9393600	-0.00017663091
35	0x3d300c54	0.042980507
36	0xbd6331fe	-0.0554676
37	0xbdc3af1c	-0.09554884
38	0xbd82a0f5	-0.06378356
39	0x3d48b9b0	0.04900521
40	0x3de1aaf4	0.11018935
41	0x3d187738	0.03722307
42	0x3debebf4	0.11519614
43	0x3ce1d580	0.027567625
44	0xbad50cc0	-0.001625441
45	0xbcd84914	-0.026402034
46	0x3d4bddd0	0.049772084
47	0x3db4838c	0.08814153
48	0xbdba107a	-0.09085174
49	0xbdd43a87	-0.10362726
50	0x3ca43a08	0.020047203
51	0xbdb5270e	-0.0884534
52	0xbd4e8444	-0.050419107
53	0x3d945d6a	0.0724438
54	0xbcdc4224	-0.026887007
55	0x3d3542d0	0.04425317
56	0xbdcd74e9	-0.100320645
57	0xbd85f42a	-0.06540711
58	0xbcbcb90c	-0.023037456
59	0x3dcf0ec6	0.1011024
60	0x3c0b1080	0.008487821
61	0x3d8d5f98	0.06902999
62	0xbcde479c	-0.027133755
63	0xbda891da	-0.08230944
64	0x3d340c34	0.04395695
65	0x3da9286c	0.08259663
66	0xbc6d7cf0	-0.014495119
67	0x3db1968c	0.08671293
68	0x3de333ea	0.11093886
69	0x3b7e3000	0.0038785934
70	0xbda71cca	-0.08159788
71	0xbdcf8d82	-0.10134412
72	0x3dae27ae	0.08503662
73	0xbce64cd0	-0.028112799
74	0x3dc6e458	0.09711522
75	0x3d6c0fa8	0.05763212
76	0x3c07b328	0.00828246
77	0x3d6e86d8	0.058234066
78	0x3ce8c3e0	0.028413713
79	0x3da203e2	0.07910897
80	0x3d9f3a6a	0.077748135
81	0x3dd1bcfc	0.10241124
82	0xbd066c4c	-0.032818124
83	0xbb44c1a0	-0.0030022636
84	0xbd93b634	-0.07212487
85	0xbd379b58	-0.04482588
86	0x3db37f1a	0.08764477
87	0xbd62f389	-0.055408034
88	0xbd620ed9	-0.05518994
89	0xbda88e91	-0.082303174
90	0x3dcb667a	0.09931655
91	0xbd4d22ae	-0.0500819
92	0xbc633548	-0.013867684
93	0xba018900	-0.0004941374
94	0x3da87846	0.08226065
95	0xbd00d4ea	-0.03145305
96	0xbc80d50c	-0.015726589
97	0x3c00abc0	0.007853448
98	0x3d1ac410	0.037784636
99	0x3d218e38	0.03944227
100	0xbde6230f	-0.11237156
101	0x3d0c9138	0.03431818
102	0xbdc99345	-0.098425426
103	0x3dd2c7ca	0.10292013
104	0x3da2ef56	0.07955806
105	0x3d763b7c	0.060115322
106	0xbc02e690	-0.007989541
107	0xbcb77e8c	-0.02239921
108	0xbdcbbb38	-0.099478185
109	0x3d0dc46c	0.03461115
110	0x3d5a6a34	0.05332394
111	0xbd21acaa	-0.039471306
112	0x3d380614	0.04492767
113	0x3d83d49a	0.06437035
114	0xbc91c2ec	-0.017793141
115	0x3dc0dcf0	0.094171405
116	0x3c3596d0	0.01108332
117	0xbd86745a	-0.06565161
118	0x3d9a2430	0.075264335
119	0x3d335984	0.04378654
120	0xbdcfe243	-0.10150578
121	0x3dea3a52	0.11436905
122	0xbcf7675c	-0.030200653
123	0xb9b68400	-0.00034812093
124	0xbd3bcf5c	-0.04585205
125	0xbd93d3ff	-0.072181694
126	0x3dacab4a	0.08431108
127	0xbd926c2c	-0.071495384
128	0x3de6e6a2	0.112744585
129	0x3c805e20	0.015669882
130	0xbd1dbbda	-0.038509227
131	0x3dd31418	0.10306567
132	0x3d8de532	0.06928481
133	0xbd69ea38	-0.057108134
134	0x3d718cac	0.058972046
135	0xbda7b85d	-0.081894614
136	0xbdbbd9cc	-0.09172401
137	0x3ce9ca30	0.028538793
138	0xbda78c22	-0.08181025
139	0xbdeb77e6	-0.11497478
140	0xbdb9248f	-0.09040176
141	0x3db05580	0.08610058
142	0x3d980382	0.07422544
143	0x3cd82098	0.02638273
144	0xbcce1644	-0.025157101
145	0xbd1619e8	-0.0366458
146	0xbde51a95	-0.11186711
147	0xbdd6e467	-0.10492783
148	0x3d835842	0.06413318
149	0xbd615843	-0.055015814
150	0x3c866ee8	0.016410306
151	0x3d259f74	0.04043527
152	0xbd03b93a	-0.032159068
153	0x3cfd1d88	0.03089787
154	0x3da340f8	0.07971376
155	0xbdec06dc	-0.11524746
156	0x3cb2c2a0	0.02182132
157	0x3c382780	0.011239886
158	0xbd8d34b2	-0.068948165
159	0x3db8f174	0.090304285
160	0x3d9983fe	0.07495879
161	0xbd85151c	-0.06498167
162	0xbd84a192	-0.064761296
163	0xbd95434e	-0.07288228
164	0x3c5d4e40	0.013507426
165	0xbde16ec3	-0.11007454
166	0x3dcd92be	0.100377545
167	0x3c867478	0.016412959
168	0x3dc844ba	0.097787336
169	0xbd2a6cac	-0.041607544
170	0xbd81ae00	-0.06332016
171	0x3da55c98	0.080743015
172	0xbd06984a	-0.032860078
173	0xbdde4bf0	-0.10854328
174	0xbcbd887c	-0.02313637
175	0xbda28ed6	-0.079374
176	0x3d8d4eb0	0.06899774
177	0x3deb7116	0.11496179
178	0xbda41e36	-0.08013575
179	0xbde020be	-0.10943745
180	0x3da1a1c0	0.078921795
181	0xbd0138d0	-0.03154832
182	0x3d0396c8	0.032126218
183	0x3cb2cf70	0.02182743
184	0xbd3db82a	-0.04631821
185	0xbdcac963	-0.09901693
186	0x3db2ddec	0.087337345
187	0x3de8b5be	0.113627896
188	0xbdc8aca2	-0.09798552
189	0x3d4ad368	0.04951802
190	0x3d8e952c	0.06962046
191	0x3d2ee830	0.0427019
192	0x3dabff22	0.08398272
193	0x3d5c2f38	0.05375597
194	0xbde79678	-0.113079965
195	0xbcdc38c8	-0.026882544
196	0x3d969862	0.073532835
197	0xbd6987d0	-0.057014287
198	0x3d329df4	0.043607667
199	0xbd93a274	-0.0720872
200	0x3dc3eb1c	0.09566328
201	0x3cc3ff10	0.023925334
202	0xbddae75f	-0.10688662
203	0x3c2f79a0	0.01071015
204	0xbd81ce25	-0.06338147
205	0xbdad5fd4	-0.084655434
206	0x3cf30440	0.029665112
207	0x3d8414e6	0.064492986
208	0xbdd6ed2f	-0.10494458
209	0xbde50d6d	-0.111842014
210	0x3da63480	0.08115482
211	0x3cb481c8	0.02203454
212	0x3bd7d920	0.0065871626
213	0x3c845b10	0.016156703
214	0xbdc86684	-0.09785178
215	0xbd2fe16c	-0.04293959
216	0xbca88680	-0.020571947
217	0x3cabe9f0	0.020985574
218	0xbdc57dcc	-0.096431345
219	0x3dc31eee	0.09527384
220	0x3d83197a	0.06401344
221	0x3dcf8910	0.101335645
222	0x3d5c7ba8	0.053828865
223	0xbda3691a	-0.07979031
224	0xbd966dbf	-0.07345151
225	0x3d0a6a08	0.033792526
226	0xbde1d726	-0.110273644
227	0x3c157090	0.009121075
228	0xbccfe2fc	-0.02537679
229	0xbd9f254c	-0.07770786
230	0xbcce85f4	-0.025210358
231	0x3cc42640	0.02394402
232	0xbd85c406	-0.06531529
233	0x3d162c94	0.036663607
234	0xbddb5aea	-0.107107
235	0x3da1c73a	0.078993276
236	0xbdaad26c	-0.08340916
237	0x3de9b704	0.114118606
238	0xbddc28e0	-0.10749984
239	0xbcfd41fc	-0.030915253
240	0xbd8c32a0	-0.068455935
241	0x3da6d35a	0.08145781
242	0xbdc165a9	-0.09443218
243	0x3cab2c38	0.020895109
244	0xbdc4c036	-0.09606974
245	0x3d331844	0.043724313
246	0xbd76d2af	-0.060259517
247	0xbdd4e797	-0.10395735
248	0x3a9d6100	0.0012007058
249	0xbd718bac	-0.058971092
250	0xbd525a80	-0.05135584
251	0x3dd73438	0.10508007
252	0xbd8a3e3a	-0.0675015
253	0x3c76aa10	0.0150551945
254	0xbcfa6930	-0.030567735
255	0x3c2266f0	0.0099122375

conv1.bias f4 [6]
0	0xbb7cfa20	-0.0038601235
1	0xbd2df6a2	-0.042471536
2	0xbd80edc4	-0.0629535
3	0xbdba4bae	-0.09096466
4	0xbdc28afe	-0.09499167
5	0xbd5f9c05	-0.05459215

conv2.weight f4 [16, 6, 5, 5]
0	0xbc7f9ec8	-0.015601821
1	0xbd9e33ee	-0.077247486
2	0x3bdd9df0	0.0067632124
3	0x3c3bc778	0.011461131
4	0x3d8a84ec	0.06763634
5	0x3d8e3096	0.06942861
6	0xbcded0cc	-0.027199171
7	0xbd7413b6	-0.05958911
8	0xbd52dc7e	-0.05147981
9	0x3d68cb68	0.05683461
10	0x3d063bdc	0.03277193
11	0xbb2217a0	-0.002473332
12	0xbda0cac1	-0.07851172
13	0x3d39163c	0.04518722
14	0xbcd37ab4	-0.025815345
15	0x3cabcd00	0.020971775
16	0xbcda4540	-0.02664435
17	0x3d305d8a	0.043057956
18	0xbd0d0d2d	-0.034436394
19	0xbd4afd3e	-0.049557917
20	0xbcdd2dcc	-0.026999377
21	0xbd448c88	-0.047985584
22	0x3d469d38	0.04848978
23	0xbd81de9d	-0.06341288
24	0xbb83a650	-0.0040176287
25	0x3d177338	0.036975116
26	0x3b415420	0.0029499605
27	0x3d5de51c	0.054173574
28	0x3d918bbe	0.07106732
29	0xbd49d94b	-0.049279492
30	0xbd537808	-0.051628143
31	0x3d5d91a8	0.054093987
32	0xbb373aa0	-0.0027958527
33	0xbd82b718	-0.063825786
34	0x3c93fa7c	0.018063776
35	0xbd15b391	-0.0365482
36	0x3d4ce4b0	0.05002278
37	0x3d702ee8	0.058638483
38	0x3cbd9720	0.023143351
39	0x3d5f2b58	0.054484695
40	0xbc631e88	-0.01386226
41	0xbce61950	-0.028088242
42	0x3b592b20	0.0033137277
43	0x3d0f621a	0.035005666
44	0x3d9d4c64	0.07680586
45	0xbd444ca9	-0.04792467
46	0xbd1dcf58	-0.038527817
47	0x3d96713a	0.07345815
48	0x3c8cddf4	0.01719568
49	0x3d360bf0	0.04444498
50	0xbd92e091	-0.07171739
51	0x3bb51a00	0.005526781
52	0xbd4b379a	-0.049613573
53	0x3d9b73f2	0.07590474
54	0x3d307dda	0.04308877
55	0x3c20fc88	0.009825833
56	0xbbd60330	-0.0065311417
57	0xba799f80	-0.00095223635
58	0xbd631cdb	-0.05544744
59	0xbbb0c430	-0.005394481
60	0xbd2620ca	-0.040558614
61	0xbd9996fc	-0.07499501
62	0x3d225ba0	0.03963816
63	0x3d089510	0.033345282
64	0x3c2424f8	0.01001858
65	0x3d9a2eee	0.075284824
66	0x3cfebdd8	0.031096384
67	0x3ca63284	0.02028776
68	0xbd58f92c	-0.052972004
69	0x3d94cf14	0.072660595
70	0x3d9a1e66	0.07525329
71	0x3d2cbd88	0.04217294
72	0xbca44f84	-0.020057447
73	0x3b5a5b80	0.0033318698
74	0xbd45b506	-0.04826834
75	0xbd3219be	-0.04348158
76	0xbd7edc1c	-0.06222163
77	0xbd984393	-0.07434764
78	0x3d8a3b30	0.0674957
79	0xbaa62880	-0.0012676865
80	0x3d853826	0.0650485
81	0x3c8fa7a4	0.017535992
82	0xbca77a32	-0.02044401
83	0x3d67dde0	0.05660808
84	0x3c823570	0.015894622
85	0x3d1f5abc	0.03890489
86	0x3d958940	0.07301569
87	0xbc877b9c	-0.016538434
88	0x3d255be8	0.04037085
89	0x3ce0184c	0.027355336
90	0xbd925e08	-0.07146841
91	0x3d1d4678	0.038397282
92	0x3d83a3e4	0.06427744
93	0x3d5c7d8c	0.05383067
94	0x3c96e23c	0.018418424
95	0xbc1efa28	-0.009703197
96	0xbd420bee	-0.04737466
97	0xbc2985d0	-0.010346845
98	0x3d88df4a	0.06683214
99	0x3d1d515e	0.038407676
100	0x3d5f8a4c	0.05457525
101	0xbd01c990	-0.031686366
102	0x3d002326	0.03128352
103	0x3d797bf4	0.060909227
104	0xbc6211f0	-0.013798222
105	0x3c9e6e30	0.01933965
106	0x3da63e50	0.08117354
107	0x3d6a8db8	0.05726406
108	0x3cc35d9c	0.023848347
109	0xbd7913cb	-0.06080989
110	0xbcbd0292	-0.023072515
111	0x3cae2400	0.0212574
112	0xbc343250	-0.010998324
113	0x3d2bb6a6	0.041922234
114	0x3d798c74	0.060924962
115	0x3d2ef9a6	0.042718552
116	0x3c85c5f4	0.016329743
117	0xbbf755d0	-0.0075480714
118	0xbd5ddebe	-0.0541675
119	0x3bc47ad0	0.0059960857
120	0x3d2faae4	0.042887583
121	0xbd949ae0	-0.072561026
122	0xbbbb6c60	-0.0057197064
123	0x3cbc32b4	0.022973396
124	0xbd0a6064	-0.03378333
125	0xbd95fa17	-0.073230915
126	0x3b440940	0.002991274
127	0x3d04d264	0.032427207
128	0xbce5d0b4	-0.028053619
129	0x3c260170	0.010132179
130	0xbd4cad4b	-0.049969953
131	0x3c9e305c	0.019310169
132	0x3d8edf86	0.069762275
133	0x3d5b3bbc	0.053523764
134	0xbcf6d088	-0.030128732
135	0x3d559168	0.052140623
136	0xbd80f916	-0.06297509
137	0xbc9dcc50	-0.019262463
138	0x3c61d348	0.0137832835
139	0x3d0ec600	0.034856796
140	0xbcc8f8dc	-0.024532728
141	0xbd4a7f23	-0.049437653
142	0x3d902856	0.070389435
143	0x3d824294	0.06360355
144	0x3cfa07dc	0.030521326
145	0x3d4abf94	0.04949911
146	0x3ce702b0	0.028199524
147	0xbd1c8627	-0.038213875
148	0xbd4b8345	-0.049685735
149	0xbda21a39	-0.07915158
150	0xbd0a7109	-0.033799205
151	0x3d223104	0.039597526
152	0x3c9ffe7c	0.019530527
153	0x3a20cf00	0.0006134361
154	0x3d178a88	0.036997348
155	0xbd39a747	-0.045325544
156	0xbd9fe9ad	-0.07808242
157	0xbd4adc5e	-0.049526565
158	0xbbc75620	-0.006083265
159	0x3d252c04	0.04032518
160	0x3d34c814	0.044136122
161	0x3d9947d4	0.07484403
162	0x3cdf24ac	0.027239166
163	0x3a92e8c0	0.0011208281
164	0xbc8a88f0	-0.016911
165	0x3d9d50ca	0.07681425
166	0xbd6940c4	-0.05694653
167	0xbb421da0	-0.0029619709
168	0x3ccf3290	0.025292665
169	0x3cf98784	0.030460127
170	0x3d4363d4	0.047702625
171	0xbd41c836	-0.047310077
172	0x3c43f208	0.01195956
173	0x3c951d78	0.018202528
174	0x3d71683c	0.058937296
175	0x3d76f974	0.06029649
176	0x3d6fd38c	0.058551356
177	0x3d9f266e	0.07771002
178	0x3d0bc7e8	0.034126192
179	0x3baecbb0	0.00533434
180	0xbd893bb2	-0.06700839
181	0xbd78bbf0	-0.060726106
182	0xbd567c50	-0.052364647
183	0x3cdc3c4c	0.02688422
184	0xbc94cddc	-0.018164568
185	0x3d812ebe	0.063077435
186	0xbd9d4cb2	-0.07680644
187	0x3d954b4a	0.07289751
188	0x3d59ee18	0.05320558
189	0xba79eb80	-0.00095336884
190	0x3b82ff60	0.003997728
191	0x3d225676	0.039633237
192	0x3d2afac8	0.04174307
193	0x3d3a5ab8	0.045496672
194	0xbd63fdd5	-0.055661995
195	0xbc93896c	-0.018009864
196	0x3c4bc888	0.012437947
197	0x3d9d06cc	0.07667312
198	0x3d08ef24	0.033431187
199	0xbd17c6d7	-0.037054863
200	0x3d663de8	0.056211382
201	0x3bcda6c0	0.0062759817
202	0xbd4163c0	-0.04721427
203	0x3da384ca	0.07984312
204	0x3c83d46c	0.016092502
205	0x3d75ea60	0.06003797
206	0xbcac051c	-0.02099853
207	0xbd3f984f	-0.046776112
208	0xbcbe099a	-0.023197938
209	0xbd9cf261	-0.076634176
210	0xbd245707	-0.04012206
211	0xbcd78730	-0.02630958
212	0xbd68e2c6	-0.056856893
213	0x3d19f6fa	0.03758905
214	0xbd7f9e56	-0.06240686
215	0xbd3378c4	-0.043816343
216	0xbd9d5504	-0.07682231
217	0x3d401884	0.04689838
218	0x3d1c84b6	0.0382125
219	0xbda57fdf	-0.0808103
220	0x3d076350	0.033053696
221	0x3bd73130	0.006567143
222	0x3cd7c9d4	0.026341356
223	0x3d4c1190	0.049821436
224	0xbcc5cef0	-0.024146527
225	0x3d8aba9a	0.06773873
226	0xbbf964d0	-0.0076108947
227	0x3d1ea984	0.03873588
228	0xbd1149d7	-0.03547081
229	0xbd8a4c54	-0.0675284
230	0x3d70eb78	0.05881831
231	0xbc8b366c	-0.016993724
232	0x3d2f6594	0.04282148
233	0xbd08be55	-0.03338464
234	0xbd997a11	-0.074939854
235	0xbd855732	-0.06510772
236	0x3da57c0c	0.08080301
237	0xbd6b404d	-0.05743437
238	0x3d1faaf2	0.038981386
239	0xbd8c0d60	-0.068384886
240	0x3da1e830	0.079056144
241	0x3d9a8a82	0.075459495
242	0xbd8b5a88	-0.06804377
243	0x3da254b4	0.07926312
244	0x3d5ed5d4	0.05440314
245	0xbcccfdee	-0.025023427
246	0xbd35691f	-0.044289704
247	0x3d3483e4	0.044071093
248	0x3b71dd00	0.0036905408
249	0xbcc60f5c	-0.024177246
250	0xbbbf6770	-0.005841188
251	0xbd509870	-0.050926626
252	0xbd0648d6	-0.032784306
253	0x3d21f998	0.03954467
254	0x3d12e042	0.0358584
255	0x3d2036bc	0.0391147

conv2.bias f4 [16]
0	0x3d6c11e4	0.05763425
1	0xbd6a0670	-0.057135046
2	0x3d509664	0.050924674
3	0x3d4c94d4	0.04994662
4	0x3d92ca3c	0.071674794
5	0xbd83d7a1	-0.06437612
6	0xbd828aa9	-0.063741036
7	0xbcaedc38	-0.021345243
8	0x3c69a5b8	0.014260702
9	0x3d86f4ae	0.06589638
10	0xbd01729b	-0.031603437
11	0xbd079b33	-0.033106994
12	0x3d4d3640	0.050100565
13	0xbca3c08c	-0.019989274
14	0xbc221650	-0.009893015
15	0xbd8aa6cd	-0.06770096

fc1.weight f4 [120, 400]
0	0x3d415a63	0.04720534
1	0x3aa2f5a0	0.0012432821
2	0xbd01e4c8	-0.031712323
3	0x3d150d11	0.036389414
4	0xbd35f78f	-0.044425543
5	0x3bee14f0	0.0072656795
6	0x3d175c2b	0.036953133
7	0x3a9a0b00	0.0011752546
8	0xbcf0beaa	-0.02938779
9	0xbd129778	-0.035788983
10	0xbd38144d	-0.044941235
11	0xbbc36ba8	-0.0059637614
12	0x3c6cd164	0.0144542195
13	0xbd229935	-0.03969689
14	0x3d2dfe49	0.042478833
15	0x3c253d18	0.010085367
16	0x3c60e2f4	0.013725985
17	0xbb6a0b50	-0.003571231
18	0xbc384bd8	-0.011248551
19	0xbc1ce460	-0.009575933
20	0x3cde096e	0.027104106
21	0x3cd9cebe	0.02658784
22	0xbd281613	-0.041036677
23	0xbd251026	-0.040298603
24	0x3d00b511	0.03142268
25	0x3ca2c36a	0.019868571
26	0x3d2c5e49	0.042082105
27	0x3d246175	0.040132005
28	0xbca67487	-0.020319236
29	0x3bc42be8	0.0059866793
30	0xb8e30000	-0.000108242035
31	0x3c38d2e0	0.011280745
32	0xbcce1c47	-0.025159968
33	0xbce9866d	-0.028506482
34	0xbcb2648a	-0.021776456
35	0x3ccb4742	0.024814252
36	0x3d478041	0.048706297
37	0xbd0ffdc8	-0.035154134
38	0xbd20ec5d	-0.039287914
39	0xbc94f5a0	-0.01818353
40	0xbc31352c	-0.0108159
41	0xbd0631ed	-0.032762457
42	0x3ba9fb68	0.0051874407
43	0x3d2bfa49	0.041986737
44	0x3cef59fe	0.029217716
45	0x391d5a00	0.00015006214
46	0x3d173237	0.036913123
47	0xbb934b30	-0.004495047
48	0xbcf9e4b0	-0.030504555
49	0xbc71d8d4	-0.0147611685
50	0xbd42edfd	-0.047590245
51	0x3cfa8666	0.030581664
52	0x3c999c2a	0.018751223
53	0xbd2d4a6b	-0.0423073
54	0xbc947a56	-0.01812474
55	0xbcdbbad0	-0.026822478
56	0xb920be00	-0.0001532957
57	0x3d382111	0.04495341
58	0x3c563d04	0.013076071
59	0xbce84a07	-0.028355611
60	0x3c56e924	0.0131171085
61	0x3c8d4ad6	0.017247599
62	0x3d28eead	0.041243244
63	0x3d263c89	0.040585075
64	0xbd157c85	-0.036495704
65	0x3d49a561	0.049229983
66	0xbc4afa0c	-0.012388717
67	0x3cbc44ea	0.02298208
68	0xbd307ab2	-0.04308576
69	0xbd4691eb	-0.048479002
70	0xbbe4f230	-0.006986879
71	0x3d0d4a7b	0.03449486
72	0x3d224c8f	0.039623793
73	0x3c580944	0.013185803
74	0x3cb3949a	0.021921445
75	0xbae2e760	-0.0017311387
76	0xbd3f14fb	-0.046650868
77	0x3d15847f	0.03650331
78	0x3cd30bb2	0.025762413
79	0xbc5c9748	-0.013463803
80	0x3d08b8e5	0.033379454
81	0xbd239b30	-0.03994292
82	0xbc7555d4	-0.014974076
83	0xbd3f9283	-0.046770584
84	0x3d0638ef	0.03276914
85	0xbcf45277	-0.029824479
86	0x3d36803b	0.044555884
87	0x3d448fd1	0.047988717
88	0xbce0fcdd	-0.027464325
89	0xbd354ed0	-0.044264615
90	0x3d14f779	0.03636882
91	0xbd137fc8	-0.036010534
92	0x3a8c2ac0	0.0010693893
93	0xbc69fe48	-0.014281817
94	0xbccc3f03	-0.02493239
95	0xbd0e95c2	-0.03481079
96	0x3d110747	0.03540733
97	0xbd0b9c74	-0.034084752
98	0xbcdf2583	-0.027239567
99	0x3cf5b3d2	0.029992972
100	0x3c0c48f4	0.008562315
101	0xbd1e5820	-0.03865826
102	0x3b96c428	0.0046010204
103	0x3cb811ba	0.02246939
104	0xbc1504f8	-0.009095423
105	0xbaba1d00	-0.0014199317
106	0xbcd07830	-0.025447935
107	0xbbaeebf0	-0.0053381845
108	0xbd0eefe6	-0.034896754
109	0xbd2bc813	-0.041938853
110	0x3d452f87	0.04814103
111	0xbd2e38d0	-0.04253465
112	0x3cc63dd2	0.0241994
113	0xbd20cf42	-0.039260156
114	0x3bb12d30	0.005406998
115	0x3d414299	0.047182653
116	0xbcc73f23	-0.024322098
117	0x3d135659	0.03597102
118	0xbc026854	-0.007959444
119	0xbca6c020	-0.020355284
120	0xbc6b6e4c	-0.014369559
121	0xbb1194e0	-0.002221398
122	0x3d0cbd31	0.034360114
123	0xbd33bd62	-0.04388178
124	0x3cef23b6	0.029191833
125	0x3c7c4664	0.015397642
126	0xbc620638	-0.013795428
127	0x3d185f4f	0.03720027
128	0x3d335e9d	0.043791402
129	0x3d27eed3	0.040999245
130	0xbd1afcae	-0.03783863
131	0x3c8f87d2	0.017520819
132	0x3d4c2361	0.049838427
133	0x3cfadd46	0.03062309
134	0xbc9297e4	-0.017894693
135	0x3d3d47eb	0.046211164
136	0x3c352680	0.011056542
137	0xbd3d95df	-0.046285506
138	0xbbf3bb68	-0.007438112
139	0x3d30ce3b	0.043165427
140	0x3b7e2e60	0.0038784966
141	0xbc8a8e76	-0.016913634
142	0x3d06cc7f	0.032909866
143	0xbc89a2a0	-0.016801178
144	0xbbe4d558	-0.0069834404
145	0xbce8bf4d	-0.028411532
146	0x3cf521d2	0.029923353
147	0x3c57ce0c	0.013171684
148	0x3cf32152	0.029678974
149	0xbcb09fb0	-0.02156052
150	0xbcd2a563	-0.025713628
151	0xbc9e3513	-0.019312417
152	0xbcc07ebd	-0.023497934
153	0xbcefa050	-0.029251248
154	0x3d049541	0.032368902
155	0x3d11a449	0.035557065
156	0xbc73950c	-0.0148670785
157	0x3c647fdc	0.0139465
158	0xbcc4592d	-0.023968304
159	0xbc29f6b4	-0.01037376
160	0x3bc83750	0.0061101094
161	0xbc989c36	-0.018629175
162	0xbbfd52d0	-0.0077308193
163	0xbc513198	-0.012768172
164	0xbd1ee546	-0.03879287
165	0x3ce313c2	0.027719382
166	0x3c4215b4	0.011845995
167	0x3cba2e66	0.022727203
168	0xbcb1f083	-0.02172113
169	0xbc89b0f0	-0.016808003
170	0x3d2cfdeb	0.042234343
171	0xbd232255	-0.039827663
172	0x3ced2276	0.028947096
173	0x3a9d5d40	0.001200594
174	0x3d19bc01	0.03753281
175	0x3c233694	0.009961743
176	0x3a7b2ac0	0.00095812604
177	0xbd2a1dfa	-0.041532494
178	0xbd1918d5	-0.037377197
179	0x3d077957	0.033074703
180	0x3c272fb8	0.010204248
181	0xbcd8e870	-0.026478022
182	0x381d1800	3.745407e-05
183	0xbca3319d	-0.019921118
184	0x3d20a781	0.039222244
185	0x3d460965	0.048348803
186	0xbd14c952	-0.036324807
187	0x3cad9162	0.021187488
188	0x3bdca5e8	0.0067336448
189	0x3ce0e22e	0.0274516
190	0xbcc4ed07	-0.024038805
191	0x3c8518ea	0.016247232
192	0xbd2761d0	-0.040864766
193	0xbcd4efca	-0.025993247
194	0xbc72e2d8	-0.014824592
195	0xbbc94530	-0.006142281
196	0x3d47fa2b	0.048822563
197	0xbd15a57b	-0.036534768
198	0x3d0740db	0.033020835
199	0xbc9f5320	-0.019448817
200	0x3cf16456	0.02946679
201	0xbd13580e	-0.035972647
202	0x3c4dc7dc	0.012559857
203	0xbcbd5f50	-0.023116738
204	0xbc327d78	-0.010894172
205	0xbb4a23e0	-0.0030844137
206	0x3c918d6a	0.017767627
207	0x3d264de3	0.040601622
208	0xbca485ad	-0.020083273
209	0xbd3d86ca	-0.046271123
210	0xbcb8129a	-0.022469807
211	0x3d4aa63f	0.04947495
212	0x3c52ca6c	0.012865644
213	0xbd18ffa3	-0.03735317
214	0x3cdcecb2	0.026968334
215	0x3c5c203c	0.01343542
216	0x3d27471d	0.040839303
217	0x3d3c8081	0.04602099
218	0xbc012a94	-0.007883687
219	0x3cbe5cea	0.023237664
220	0xbca9b280	-0.020714998
221	0xbca06673	-0.019580102
222	0xbca078f3	-0.019588923
223	0x3cf8d886	0.030376684
224	0x3c186e8c	0.0093037
225	0x3d033ad7	0.032038536
226	0x3d13014f	0.03588992
227	0x3c24ed4c	0.010066342
228	0x3b9292f0	0.0044730827
229	0x3c860b72	0.01636288
230	0x3c75b0bc	0.01499575
231	0x3d173dd9	0.036924217
232	0xbcfac640	-0.030612111
233	0x3d088ba7	0.033336308
234	0xbd1d1b4e	-0.038356118
235	0xbc8dbb64	-0.017301269
236	0x3c8276b2	0.015925739
237	0x3d31774f	0.043326672
238	0x3b8fc080	0.0043869615
239	0x3d23f93d	0.040032614
240	0xb7695000	-1.3906509e-05
241	0x3b6fedb0	0.0036610179
242	0xbb8b7c70	-0.0042567775
243	0x3cb15e56	0.021651428
244	0x3d25a89d	0.040444005
245	0x3d3838ed	0.044976164
246	0x3d15df11	0.036589686
247	0x3cc57ade	0.02410644
248	0x3c04a0c0	0.008094966
249	0xbcde865a	-0.027163673
250	0x3be906f0	0.0071114227
251	0x3d0b5d79	0.03402469
252	0xbcf43ef7	-0.02981518
253	0x3d4c1301	0.04982281
254	0x3ce9445a	0.028474975
255	0x3d44905b	0.04798923

fc1.bias f4 [120]
0	0x3c5f25f4	0.013619889
1	0xbd477b97	-0.04870185
2	0x3d3e9ad1	0.046534363
3	0x3d3ec22f	0.046571907
4	0x3d33eb59	0.043925617
5	0xbabe8440	-0.0014535263
6	0x3c076934	0.0082648285
7	0xbd2dc6ff	-0.042426106
8	0x3d05054b	0.03247575
9	0x3cc1882e	0.023624506
10	0x3cc24f96	0.02371959
11	0x3d23074d	0.039801884
12	0xbb65ad80	-0.003504604
13	0xbd18ee80	-0.037336826
14	0x3d3a59f9	0.04549596
15	0xbd3f536b	-0.046710413
16	0xbcaab407	-0.020837797
17	0xbcf81a10	-0.030285865
18	0xbc05e468	-0.008172132
19	0x3d4021bf	0.046907183
20	0x3d2f879d	0.04285394
21	0x3cb6ba3e	0.022305604
22	0xbc073854	-0.008253176
23	0x3c9b891a	0.018986274
24	0xbd119d90	-0.035550654
25	0xbc7ce8a0	-0.0154363215
26	0x3d0aed77	0.03391787
27	0xbcde8070	-0.027160853
28	0xbc94daf0	-0.018170804
29	0xbd40347d	-0.046925057
30	0xbba79fb0	-0.005115472
31	0xbd195608	-0.03743556
32	0xbc8a1630	-0.016856283
33	0xbc8a489c	-0.016880326
34	0xbd07847e	-0.03308534
35	0x3ce389c6	0.027775656
36	0x39b59a80	0.00034638122
37	0xbcdb114d	-0.026741648
38	0x3bbb4558	0.0057150535
39	0x3d063729	0.03276745
40	0x3c8ea796	0.017413896
41	0xbd16b8f5	-0.036797483
42	0xbc598bf4	-0.013277996
43	0x3cbd744a	0.02312674
44	0xbc9ad8fa	-0.01890229
45	0x3d125c1d	0.035732377
46	0x3b9d3fe8	0.004798878
47	0x3d3d75e3	0.046255004
48	0xbd38daed	-0.04513066
49	0x3d2c72ad	0.04210155
50	0x3c5a7e64	0.013335798
51	0xbc3a60f8	-0.011375658
52	0x3c8174de	0.015802797
53	0xbd273bc3	-0.040828478
54	0x3d270297	0.040773954
55	0x3d26baa9	0.040705357
56	0x3c47ea34	0.0122018345
57	0xbb3262e0	-0.0027219579
58	0xbcbb23c0	-0.022844195
59	0xbc9bf057	-0.019035501
60	0xbd06bff8	-0.03289792
61	0x3b23b080	0.0024977028
62	0x3cff81de	0.031189855
63	0x3cc76aca	0.024342913
64	0x3aa44040	0.0012531355
65	0xbd451b82	-0.048121937
66	0xbd32ad73	-0.043622445
67	0xbc61e38c	-0.013787162
68	0xbc30a920	-0.01078251
69	0xba576680	-0.0008216873
70	0x3c24aa0c	0.010050308
71	0x3c9ea882	0.01936746
72	0x39e82d00	0.00044284016
73	0xbbd0e768	-0.006375242
74	0x3c563c44	0.013075892
75	0x3d0a33c1	0.033740763
76	0xbcdef38a	-0.027215738
77	0xbc8079ea	-0.015683133
78	0xbc54a248	-0.012978144
79	0xbcb80c93	-0.022466933
80	0x3bc2dcd8	0.005946737
81	0x3d09d309	0.033648524
82	0x3c588cec	0.013217192
83	0xbcb6a93d	-0.022297496
84	0xbafc4ca0	-0.001924891
85	0xbce193e7	-0.027536346
86	0xbd2cb67d	-0.042166222
87	0x3d006df1	0.03135485
88	0x3cd03182	0.025414232
89	0xbbd78140	-0.006576687
90	0x3d0944e3	0.03351296
91	0x3bdc7b00	0.00672853
92	0x3cc55b62	0.024091426
93	0x3d367039	0.044540618
94	0x3c5db434	0.013531733
95	0x3885d400	6.381422e-05
96	0xbc31a954	-0.010843594
97	0x3d068cfd	0.0328493
98	0xbc0ddaa8	-0.008658089
99	0xbd46e193	-0.048554968
100	0xbcc7cc6a	-0.024389464
101	0xbd1bfd63	-0.038083445
102	0xbd1c8fd5	-0.038223106
103	0x3d45723d	0.04820465
104	0xbd36aed2	-0.044600315
105	0xbd03ef84	-0.03221084
106	0x3cde980a	0.027172107
107	0x3d49ffaf	0.049316105
108	0xbc9dfebd	-0.019286508
109	0x3c4781c0	0.012176931
110	0xbc9bbe63	-0.019011682
111	0x3b9ba728	0.004750151
112	0xbd0a0ba8	-0.033702523
113	0xbc80a8da	-0.015705515
114	0x3c156c80	0.009120107
115	0xbccb5a50	-0.024823338
116	0xbcc8f26a	-0.024529655
117	0xbc8eec44	-0.017446645
118	0x3d36696f	0.044534143
119	0xbc983ce0	-0.018583715

fc2.weight f4 [84, 120]
0	0xbc7c69e0	-0.015406102
1	0xbb754ea0	-0.0037430897
2	0x3d9e757e	0.077372536
3	0x3db9788c	0.090561956
4	0x3d26eb4c	0.04075174
5	0x3d895a3a	0.067066625
6	0x3d613ac4	0.054987684
7	0x3d0d9404	0.034564987
8	0x3d3db420	0.04631436
9	0xbd560718	-0.05225286
10	0xbdba619e	-0.0910065
11	0x395c4c00	0.00021009147
12	0x3d64e62c	0.05588357
13	0xbcafeb30	-0.02147445
14	0x3d1f5434	0.03889866
15	0x3d49795c	0.049188003
16	0x3c66f618	0.014096759
17	0x3d910bbe	0.07082318
18	0x3cd14ab4	0.025548317
19	0xbd408826	-0.04700484
20	0xbcd38f1c	-0.025825076
21	0xbc50b9c0	-0.012739599
22	0xbc89f1dc	-0.01683896
23	0xbd54b10e	-0.051926665
24	0x3caaf7ac	0.020870052
25	0x3d0aa4d8	0.033848614
26	0x3d659a0c	0.056055114
27	0xbd943604	-0.07236865
28	0x3c9222a4	0.017838784
29	0xbc96cdec	-0.018408738
30	0xbd325d04	-0.043545738
31	0xbcd5cdf4	-0.026099183
32	0x3d168e84	0.036757007
33	0xbc9ef654	-0.019404568
34	0x3c08d660	0.008351892
35	0x3c91b0cc	0.017784499
36	0x3d7176e8	0.05895129
37	0x3d6d2fd8	0.057906955
38	0x3d3639c8	0.0444887
39	0xbd235007	-0.039871242
40	0x3d1aafdc	0.03776537
41	0xbdb95345	-0.090490855
42	0x3cac6eb8	0.021048889
43	0xbd3cc7b8	-0.046088904
44	0xbd6a08df	-0.057137366
45	0xbd4d64c0	-0.05014491
46	0xbcc7c9ec	-0.024388276
47	0x3ceb3aec	0.02871462
48	0x3d1e70e4	0.03868188
49	0xbb35f680	-0.0027765334
50	0x3d69abb0	0.0570485
51	0xbd909ca8	-0.0706113
52	0xbd938730	-0.07203519
53	0xbc47f640	-0.012204707
54	0x3d92fcc6	0.07177119
55	0x3d615f8c	0.05502276
56	0x3bba9e00	0.0056951046
57	0x3dad5ea8	0.0846532
58	0x3c8c1050	0.017097622
59	0x3cd302fc	0.025758259
60	0x3d207450	0.039173424
61	0x3d809002	0.06277467
62	0xbdafb167	-0.08578759
63	0xbd6868ae	-0.056740455
64	0x3c2125c8	0.009835668
65	0x3d82983e	0.06376694
66	0x3d90bda8	0.07067424
67	0x3d1e953c	0.03871654
68	0xbd60745d	-0.054798473
69	0xbc654780	-0.013994098
70	0xbd73d48a	-0.059528865
71	0xbd1dec88	-0.038555652
72	0x3d7df310	0.06199938
73	0x3ce27f58	0.027648613
74	0xbce31400	-0.027719498
75	0xbd50bbca	-0.05096034
76	0xbd460e5e	-0.048353545
77	0xbdb71b47	-0.089407496
78	0x3c9aeae0	0.018910825
79	0x3d416e10	0.047224104
80	0xbcd43e88	-0.025908723
81	0xbd32ac6f	-0.043621477
82	0xbd1e20f7	-0.038605656
83	0xbd3df064	-0.046371832
84	0x3d249c38	0.040188044
85	0xbc2a7bd0	-0.010405496
86	0xbda37eb6	-0.079831526
87	0xbcda8ac8	-0.026677504
88	0x3db704f6	0.08936493
89	0xbd8a9fa0	-0.06768727
90	0x3d96e060	0.07367015
91	0x3c278c88	0.010226376
92	0x3d10f120	0.035386205
93	0x3d6d47cc	0.0579298
94	0x3c456710	0.012048498
95	0xbd2dab5f	-0.04239976
96	0xbcba6780	-0.02275443
97	0xbceb0fa0	-0.028693974
98	0xbdaa438a	-0.08313663
99	0x3d5308b0	0.051521957
100	0x3db13562	0.0865276
101	0xbc5f3068	-0.013622381
102	0x3c3f1de8	0.011664845
103	0x3d307948	0.043084413
104	0x3d26c2f4	0.040713266
105	0x3cee9a68	0.029126361
106	0xbc3f38c8	-0.011671253
107	0x3ba58d10	0.0050522164
108	0xbd818df8	-0.063259065
109	0x3d2496ec	0.040182993
110	0x3d858fba	0.06521554
111	0xbd2bf805	-0.041984577
112	0x3d8d9c22	0.069145456
113	0xba349c00	-0.0006889701
114	0x3daa8568	0.083262265
115	0x3b9abb60	0.004722044
116	0xbda6ca8e	-0.08144103
117	0xbd54cf0d	-0.05195527
118	0x3d8ccbe4	0.068748266
119	0x3c93ec54	0.018057026
120	0x3d8f3b6a	0.06993754
121	0x3cfb7c68	0.03069897
122	0xbb74b040	-0.0037336498
123	0x3a2f8580	0.0006695613
124	0x3c99aa64	0.018758006
125	0xbc41ba18	-0.011824153
126	0xbcf035f4	-0.029322602
127	0x3acf6080	0.0015821606
128	0xbca3f488	-0.020014063
129	0x3d833036	0.0640568
130	0x3cd76dc4	0.026297458
131	0xbd3916d1	-0.045187775
132	0xbd32b67d	-0.043631066
133	0x3bf24b00	0.0073941946
134	0xbdaab2eb	-0.08334907
135	0x3c1bc0f8	0.009506457
136	0x3d79f01c	0.06102
137	0x3d124824	0.03571333
138	0x3d9937ec	0.074813694
139	0xbd5bc6bc	-0.053656325
140	0xbb6076a0	-0.0034250394
141	0xbc08abe0	-0.008341759
142	0x3db44a90	0.08803284
143	0x3d857662	0.0651672
144	0xbadfaf40	-0.0017065778
145	0x3cd1fd4c	0.025633477
146	0x3d295b2c	0.041346714
147	0x3d42457c	0.047429547
148	0xbdada69a	-0.08479042
149	0xbc6cdb70	-0.014456615
150	0x3cbc09c4	0.022953875
151	0x3d8eea24	0.069782525
152	0xbcf0b17c	-0.029381506
153	0x3daf7964	0.08568075
154	0x3d624638	0.055242747
155	0x3d95dad8	0.07317132
156	0xbd807b5c	-0.06273529
157	0xbd10d764	-0.035361663
158	0x3d87d3fa	0.06632228
159	0x3d644d70	0.055737913
160	0xbdae5da1	-0.08513952
161	0x3d89d8aa	0.067307785
162	0x3c0e4408	0.008683212
163	0x3c82f3dc	0.015985422
164	0x3d9d85f0	0.07691562
165	0xbdaa04de	-0.083017096
166	0x3d941856	0.07231204
167	0x3d9dba4e	0.077015504
168	0xbb26cfe0	-0.0025453493
169	0x3d1bbab4	0.03801985
170	0x3dafbb0c	0.08580598
171	0x3da66db8	0.08126396
172	0xbdb3cfdd	-0.08779881
173	0x3ce2a208	0.027665153
174	0x3dacdb5e	0.084402785
175	0xbdaba6fb	-0.08381458
176	0xbda37b72	-0.0798253
177	0xbd8b693c	-0.06807181
178	0x3d46870c	0.048468634
179	0x3d341674	0.043966725
180	0x3d88c96e	0.06679045
181	0x39d57b00	0.00040718168
182	0xbd8d885f	-0.06910776
183	0xbd394b63	-0.04523791
184	0xbda94cc0	-0.08266592
185	0xbc9ef190	-0.019402295
186	0x3d38e238	0.045137614
187	0x3d90eb5a	0.0707614
188	0x3ab07180	0.001346156
189	0xbd9c401f	-0.07629418
190	0xbcb87150	-0.02251497
191	0x3d9360ce	0.071961984
192	0xbc5684d8	-0.013093196
193	0x3d3adcb4	0.045620635
194	0xb9f63200	-0.0004695803
195	0xbd3e5658	-0.046469063
196	0xbc8588cc	-0.016300581
197	0x3d2bf0fc	0.041977867
198	0xbd1812e0	-0.037127376
199	0x3ca1520c	0.019692443
200	0x3caf15c8	0.02137269
201	0x3c740ed8	0.014896117
202	0x3db17df4	0.08666602
203	0xbd7297a0	-0.059226632
204	0xbd9bb9c0	-0.076037884
205	0xbb345320	-0.0027515367
206	0xbd546a08	-0.05185893
207	0xbd6c0283	-0.057619583
208	0xbdb87c04	-0.09008029
209	0xbd4d12dd	-0.050066818
210	0xbbf59720	-0.007494822
211	0xbca6d890	-0.020366937
212	0x3d8f9650	0.07011092
213	0x3d94f26c	0.07272801
214	0xbc585238	-0.013203196
215	0x3ca9e184	0.020737417
216	0xbdb6d83e	-0.08927964
217	0xbc0017e8	-0.0078182
218	0x3d9c8bcc	0.07643852
219	0x3d184ba4	0.03718151
220	0xbd83a215	-0.06427399
221	0x3d1438a4	0.03618683
222	0x3c87cffc	0.016578667
223	0xbbadae50	-0.0053003207
224	0x3c599ea0	0.013282448
225	0x3b93b9e0	0.004508242
226	0x3d0c1b3c	0.03420566
227	0xbd926378	-0.071478784
228	0x3daafde6	0.083492085
229	0xbd8b38b3	-0.06797924
230	0x3db13484	0.08652595
231	0xbd6556b9	-0.05599091
232	0xbda46792	-0.08027567
233	0x3d9f2db0	0.07772386
234	0xbd71cfd2	-0.059036084
235	0xbd36ee4a	-0.044660844
236	0xbd5a6dd4	-0.053327397
237	0x3d69a394	0.057040766
238	0x3dacae1c	0.08431646
239	0x3d19c788	0.037543803
240	0xbd9f0809	-0.077652045
241	0xbd155ac7	-0.036463525
242	0x3d1e9a70	0.0387215
243	0xbb1c2320	-0.0023824647
244	0xbd78db8c	-0.06075625
245	0xbd2d2421	-0.042270783
246	0xbc9954e0	-0.01871723
247	0xbd5f5016	-0.054519735
248	0xbc808204	-0.015686996
249	0x3da5e754	0.08100763
250	0xbdba3038	-0.09091228
251	0x3cfd1efc	0.030898564
252	0x3cd21348	0.02564396
253	0xbc82aa30	-0.015950292
254	0x3d3ce0d0	0.046112835
255	0xbd1e8d93	-0.038709234

fc2.bias f4 [84]
0	0x3ce0be24	0.027434416
1	0xbb837f80	-0.004013002
2	0xbda21b74	-0.079153925
3	0x3c084f68	0.008319713
4	0x3da5c8be	0.08094929
5	0x3ca02e48	0.019553319
6	0x3d12967c	0.035788044
7	0xbcc36840	-0.023853421
8	0x3d3b9a3c	0.045801386
9	0xbd1aa9bc	-0.037759528
10	0xbda42090	-0.08014023
11	0xbd2ec0c8	-0.04266432
12	0x3d065d72	0.03280396
13	0x3d4ac88c	0.049507663
14	0xbd14b1bf	-0.036302324
15	0xbcf38eee	-0.02973124
16	0xbdb15e11	-0.0866052
17	0xbd895287	-0.06705194
18	0x3dab5f06	0.08367734
19	0x3d9b7104	0.075899154
20	0x3c200760	0.009767383
21	0xbd34113e	-0.043961756
22	0x3d84257e	0.064524636
23	0xbc074780	-0.008256793
24	0x3db1c106	0.086793944
25	0x3d3269d0	0.043557942
26	0xbd53d663	-0.051718127
27	0xbda0ebd4	-0.07857481
28	0xbdb992f0	-0.09061229
29	0x3d87056a	0.065928295
30	0xbd820c68	-0.063500226
31	0x3d81f28e	0.06345092
32	0xbd393e69	-0.045225535
33	0x3d2e872c	0.04260938
34	0xbce5684c	-0.028003834
35	0x3d3a26d0	0.04544717
36	0xbaf68200	-0.0018807054
37	0xbd041f5d	-0.032256473
38	0xbd854632	-0.06507529
39	0xbd1eb61e	-0.0387479
40	0x3ca83988	0.020535246
41	0xbcbdd890	-0.023174554
42	0xbd83324e	-0.06406079
43	0x3db23010	0.087005734
44	0x3dadcc34	0.08486214
45	0x3cba3db8	0.022734508
46	0x3db23c50	0.0870291
47	0x3d13f258	0.03611979
48	0xbd6cf931	-0.057854835
49	0xbd767192	-0.060166903
50	0xbc364da0	-0.011126906
51	0xbd347f73	-0.044066858
52	0x3db40a44	0.087910205
53	0xbcf4752e	-0.029841032
54	0xbd525caa	-0.051357903
55	0xbda5eac0	-0.08101416
56	0xbcf51e62	-0.029921714
57	0xbd4f39b9	-0.050592158
58	0x3d002f1c	0.031294927
59	0xbd3f7f47	-0.04675224
60	0xbce6ad00	-0.028158665
61	0x3d81ee18	0.06344241
62	0x3db71be4	0.089408666
63	0x3c6b7450	0.014370993
64	0x3d686ea8	0.056746155
65	0xbca2a7f0	-0.01985547
66	0x3caa4438	0.020784482
67	0x3d00a7b0	0.03140992
68	0xbd9af464	-0.07566145
69	0xbd332f34	-0.04374619
70	0x3d393598	0.045217127
71	0xbd7852a7	-0.0606257
72	0xbd707d71	-0.05871338
73	0x3d2498a0	0.040184617
74	0xbc4a0b58	-0.012331806
75	0xbdb1af17	-0.08675974
76	0x3d8e0f56	0.06936519
77	0x3d871b04	0.0659695
78	0x3ce1b89c	0.027553849
79	0xbc2d0dd8	-0.010562383
80	0x3d86b3ca	0.06577261
81	0x3db2ebc2	0.087363735
82	0xbd9f30b4	-0.07772961
83	0x3d2dead0	0.042460263

fc3.weight f4 [10, 84]
0	0x3dc5ad5b	0.096522056
1	0x3dac5581	0.08414746
2	0xbbf50490	-0.0074773505
3	0x3c96d05c	0.0184099
4	0x3d7e67c2	0.06211067
5	0xbd9c38ba	-0.07628007
6	0xbc58ca18	-0.013231777
7	0x3da9c717	0.082899265
8	0x3d8e7473	0.06955805
9	0x3d7e64d6	0.062107883
10	0xbdd9b73e	-0.10630654
11	0xbca369c4	-0.019947894
12	0xbdb7db2c	-0.089773506
13	0x3dc4440d	0.09583292
14	0xbce5ccd8	-0.028051779
15	0xbd5b9257	-0.053606357
16	0xbdbe4191	-0.092898495
17	0x3d3fa436	0.046787463
18	0x3ddce5ff	0.10786056
19	0x3c0bdfe8	0.00853727
20	0xbcba93b8	-0.022775516
21	0xbc1242f8	-0.008927099
22	0x3d13022e	0.03589075
23	0x3d09ffe2	0.033691294
24	0x3c9bd68c	0.019023202
25	0x3dc7415b	0.097292624
26	0xbd4ea5de	-0.050451152
27	0x3dd22e71	0.10262764
28	0x3d7d51de	0.061845653
29	0xba77be00	-0.00094506145
30	0x3d30a35e	0.04312455
31	0x3da6dc71	0.081475146
32	0xbdb9d27a	-0.09073348
33	0xbcdc72b8	-0.02691017
34	0xbdc5db03	-0.09660914
35	0xbce67168	-0.028130248
36	0xbda4670a	-0.08027466
37	0xbd92b90a	-0.071642
38	0x3d1d471a	0.038397886
39	0xbdb08ab0	-0.086202025
40	0xbd936537	-0.071970396
41	0xbdb115e2	-0.08646752
42	0x3d0af4f6	0.03392502
43	0xbcbb515c	-0.022865944
44	0xbda8bf2a	-0.08239587
45	0x3d7dcda6	0.0619637
46	0x3d0eb662	0.034841903
47	0xbcdc3024	-0.026878424
48	0xbd84d719	-0.06486339
49	0xbd1a5e58	-0.03768763
50	0xbd833266	-0.06406097
51	0x3dcd144b	0.10013636
52	0xbd1cae0c	-0.03825192
53	0x3db2a693	0.08723178
54	0xbd19bd54	-0.037534073
55	0xbcae4210	-0.021271735
56	0x3c388728	0.0112626925
57	0xbd9841f4	-0.074344546
58	0xbca58b78	-0.020208105
59	0xbdb16f2c	-0.086637825
60	0x3ce9c504	0.028536327
61	0x3d6d2a76	0.057901822
62	0xbcfd56e0	-0.030925214
63	0x3d537262	0.051622756
64	0x3c02b648	0.00797803
65	0xbd8b3095	-0.06796376
66	0xbd5c67d6	-0.053809963
67	0xbdaaa997	-0.08333128
68	0x3daf264f	0.08552229
69	0x3db5a613	0.08869567
70	0xbcd53968	-0.02602835
71	0xbcc4b38c	-0.024011396
72	0x3cb14484	0.021639116
73	0x3da65109	0.08120925
74	0x3da1ec4b	0.079063974
75	0xbd141922	-0.03615678
76	0x3da8bc9b	0.08239099
77	0x3d674e6e	0.05647128
78	0x3b8c7820	0.004286781
79	0x3d77526a	0.06038133
80	0x3dc5efbd	0.09664867
81	0x3bed13a0	0.0072350055
82	0x3d96d327	0.07364493
83	0x3dd41ff7	0.10357659
84	0xbdbdfe7a	-0.09277053
85	0x3d9fd165	0.07803611
86	0x3b62d620	0.0034612492
87	0x3b8ec160	0.004356548
88	0xbc144c90	-0.009051457
89	0x3dabe2a3	0.08392837
90	0x3da33d81	0.07970715
91	0x3dab27a7	0.083571725
92	0xbd160692	-0.03662736
93	0x3c944a24	0.01810176
94	0x3d98a24d	0.074528314
95	0xbd647e4d	-0.055784512
96	0x3dc0ae0f	0.09408199
97	0xbda7f028	-0.08200103
98	0x3d4c9c82	0.049953945
99	0x3dbd24cb	0.09235533
100	0xbc8632f8	-0.016381726
101	0x3dcf4449	0.10120446
102	0x3d0a8976	0.0338225
103	0xbd8d513e	-0.06900261
104	0x3c53fa28	0.01293806
105	0xbdc31666	-0.095257565
106	0xbdb38688	-0.08765894
107	0x3dda4b99	0.1065895
108	0x3c6d79b8	0.014494352
109	0x3afbf480	0.0019222647
110	0xbc166fb0	-0.009181902
111	0x3d393576	0.045217
112	0xbdb9cf4b	-0.09072741
113	0xbd1db482	-0.038502224
114	0x3b16dc00	0.0023019314
115	0x3ddcd8a7	0.10783511
116	0x3d53863e	0.051641695
117	0x3d9abbb3	0.07555332
118	0xbd7d5100	-0.061844826
119	0xbcf22f4c	-0.029563569
120	0xbd6e709b	-0.058212858
121	0xbce0ec3c	-0.027456395
122	0xbc4f3688	-0.012647279
123	0x3ba6d100	0.0050908327
124	0xbddc3e77	-0.10754102
125	0x3d08deee	0.033415727
126	0x3db8f7d3	0.09031644
127	0xbd61e1ff	-0.055147167
128	0x3dcc15fd	0.099651314
129	0xbbb3cbb0	-0.005486928
130	0x3b256700	0.0025238395
131	0xbdd7a874	-0.10530177
132	0x3d6a391a	0.057183363
133	0x3d8a1a31	0.06743277
134	0x3bcebc40	0.0063090622
135	0xbc6e01a8	-0.014526762
136	0xbcfbaa24	-0.030720778
137	0x3dd76b4b	0.105185114
138	0x3bc5c6f0	0.006035678
139	0xbdb4786e	-0.08812033
140	0xbd9134e8	-0.07090169
141	0xbdd9f6e0	-0.10642791
142	0xbd39fd86	-0.045407794
143	0xbd2f9d40	-0.042874575
144	0x3dc91799	0.09818954
145	0x3da822c9	0.0820976
146	0xbddf29af	-0.108966224
147	0xbbc06810	-0.00587178
148	0xbdd113d5	-0.10208861
149	0xbd7808ec	-0.060555384
150	0x3db315e7	0.08744412
151	0xbb269500	-0.00254184
152	0x3d0f57a6	0.034995697
153	0xbd39d44e	-0.045368485
154	0x3bb90cb0	0.0056472644
155	0xbc40ec98	-0.011775158
156	0x3db05bc5	0.08611254
157	0x3dc1ec1d	0.09468863
158	0xbd71f83b	-0.05907462
159	0x3d746c32	0.059673496
160	0xbdbfd9f2	-0.09367742
161	0xbdc92720	-0.098219156
162	0x3dc98eb7	0.09841674
163	0xbccd2dbc	-0.025046222
164	0x3c986fd4	0.018608011
165	0xbdd1cc67	-0.10244065
166	0xbbe55df0	-0.0069997236
167	0xbc3d0330	-0.0115364045
168	0xbd40fc73	-0.047115754
169	0x3b813880	0.003943503
170	0xbdd7b616	-0.10532777
171	0x3d56f9a6	0.052484177
172	0x3d015c02	0.031581886
173	0xbdddb8e0	-0.10826278
174	0xbb81d840	-0.0039625466
175	0x3dd309d1	0.10304607
176	0xbdb6cd92	-0.08925928
177	0xbd735bc3	-0.059413683
178	0xbd411995	-0.047143538
179	0x3dbbe64d	0.09174786
180	0x3dcd3965	0.10020713
181	0x3ddc654f	0.107615106
182	0x3d8e837f	0.06958675
183	0xbd401444	-0.046894327
184	0x3cce018c	0.025147222
185	0xbc285a30	-0.010275409
186	0x3c6f41e0	0.014603108
187	0x3d72f3ae	0.059314422
188	0xbc0813a8	-0.008305468
189	0x3dc9efa9	0.09860165
190	0x3d9d8cd9	0.0769288
191	0xbce5d364	-0.0280549
192	0xbdaadeb1	-0.08343256
193	0x3da80813	0.08204665
194	0x3da5f30f	0.081030004
195	0xbd99a3ef	-0.07501971
196	0x3cf9fca4	0.030515976
197	0xbd46aff9	-0.048507664
198	0xbcae45d4	-0.021273531
199	0x3d86a813	0.06575026
200	0x3d9b9acf	0.07597887
201	0x3dc21315	0.09476296
202	0x3ce46eec	0.027884923
203	0xbd36f780	-0.04466963
204	0x3d408a0e	0.04700666
205	0xbdce5290	-0.10074341
206	0x3d86f0e7	0.06588917
207	0x3c6c1b58	0.014410816
208	0xbd09630a	-0.033541717
209	0xbd1eb9c8	-0.038751394
210	0x3d94d44f	0.07267057
211	0xbd31fefe	-0.04345607
212	0x3dd99dbb	0.10625788
213	0x3d701126	0.058610104
214	0x3d593ba2	0.053035386
215	0xbdcf2134	-0.10113755
216	0xbd64c9a4	-0.055856362
217	0x3d725332	0.059161372
218	0xbda8c9a0	-0.08241582
219	0xbdb947b1	-0.09046877
220	0x3d1b53ee	0.03792184
221	0xbc7289c0	-0.01480335
222	0x3dda1993	0.10649409
223	0xbc6d5078	-0.014484517
224	0x3dd175cb	0.10227545
225	0xbd95957f	-0.07303905
226	0x3dce353b	0.10068747
227	0x3d655aa6	0.055994652
228	0x3dcba6c3	0.09943917
229	0x3b751520	0.0037396625
230	0xbcada594	-0.021197118
231	0xbd1197d2	-0.035545178
232	0x3d8b83f5	0.06812278
233	0xbb10da40	-0.0022102743
234	0x3dcb3e31	0.099239714
235	0xbd6c86a7	-0.057745602
236	0xbd2cfe88	-0.042234927
237	0x3d51221a	0.051057912
238	0xbdcaeb75	-0.09908191
239	0xbdbb2a2f	-0.09138905
240	0xbdc44239	-0.095829435
241	0xbddcba01	-0.10777665
242	0xbdbb0e8f	-0.09133636
243	0xbca2ffbc	-0.019897334
244	0x3da65633	0.0812191
245	0x3ca06554	0.019579567
246	0xbdca0953	-0.0986506
247	0x3c87358c	0.016505025
248	0xbae3cf80	-0.0017380565
249	0x3da8836d	0.082281925
250	0x3d866fcb	0.065642916
251	0xbda23889	-0.079209395
252	0x3dcefde5	0.1010702
253	0xbdc72af0	-0.097249866
254	0x3dc05503	0.09391215
255	0xbc91ce08	-0.017798439

fc3.bias f4 [10]
0	0xbd2f96a2	-0.042868264
1	0xbd7ca18d	-0.061677504
2	0x3da226ed	0.07917581
3	0x3d92a6b9	0.07160706
4	0xbdcda9d4	-0.10042158
5	0xbbe3d190	-0.006952472
6	0xbda2ecc0	-0.07955313
7	0x3d42b68a	0.047537364
8	0xbd359a42	-0.044336565
9	0x3d35ae06	0.044355415
